{"format": "graph-model", "generatedBy": "2.9.1", "convertedBy": "TensorFlow.js Converter v3.18.0", "signature": {"inputs": {"input_1": {"name": "input_1:0", "dtype": "DT_FLOAT", "tensorShape": {"dim": [{"size": "-1"}, {"size": "300"}, {"size": "300"}, {"size": "3"}]}}}, "outputs": {"output_1": {"name": "Identity:0", "dtype": "DT_FLOAT", "tensorShape": {"dim": [{"size": "-1"}, {"size": "6"}]}}}}, "modelTopology": {"node": [{"name": "StatefulPartitionedCall/neural_network_2/res_mlp_2/sequential_2/res_mlp_block_17/dense_117/MatMul/ReadVariableOp", "op": "Const", "attr": {"dtype": {"type": "DT_FLOAT"}, "value": {"tensor": {"dtype": "DT_FLOAT", "tensorShape": {"dim": [{"size": "128"}, {"size": "128"}]}}}}}, {"name": "StatefulPartitionedCall/neural_network_2/res_mlp_2/sequential_2/res_mlp_block_17/dense_117/BiasAdd/ReadVariableOp", "op": "Const", "attr": {"dtype": {"type": "DT_FLOAT"}, "value": {"tensor": {"dtype": "DT_FLOAT", "tensorShape": {"dim": [{"size": "128"}]}}}}}, {"name": "StatefulPartitionedCall/neural_network_2/res_mlp_2/sequential_2/res_mlp_block_17/dense_118/MatMul/ReadVariableOp", "op": "Const", "attr": {"dtype": {"type": "DT_FLOAT"}, "value": {"tensor": {"dtype": "DT_FLOAT", "tensorShape": {"dim": [{"size": "128"}, {"size": "128"}]}}}}}, {"name": "StatefulPartitionedCall/neural_network_2/res_mlp_2/sequential_2/res_mlp_block_17/dense_118/BiasAdd/ReadVariableOp", "op": "Const", "attr": {"value": {"tensor": {"dtype": "DT_FLOAT", "tensorShape": {"dim": [{"size": "128"}]}}}, "dtype": {"type": "DT_FLOAT"}}}, {"name": "StatefulPartitionedCall/neural_network_2/res_mlp_2/sequential_2/res_mlp_block_16/dense_113/MatMul/ReadVariableOp", "op": "Const", "attr": {"value": {"tensor": {"dtype": "DT_FLOAT", "tensorShape": {"dim": [{"size": "64"}, {"size": "128"}]}}}, "dtype": {"type": "DT_FLOAT"}}}, {"name": "StatefulPartitionedCall/neural_network_2/res_mlp_2/sequential_2/res_mlp_block_16/dense_113/BiasAdd/ReadVariableOp", "op": "Const", "attr": {"value": {"tensor": {"dtype": "DT_FLOAT", "tensorShape": {"dim": [{"size": "128"}]}}}, "dtype": {"type": "DT_FLOAT"}}}, {"name": "StatefulPartitionedCall/neural_network_2/res_mlp_2/sequential_2/res_mlp_block_16/dense_114/MatMul/ReadVariableOp", "op": "Const", "attr": {"value": {"tensor": {"dtype": "DT_FLOAT", "tensorShape": {"dim": [{"size": "128"}, {"size": "128"}]}}}, "dtype": {"type": "DT_FLOAT"}}}, {"name": "StatefulPartitionedCall/neural_network_2/res_mlp_2/sequential_2/res_mlp_block_16/dense_114/BiasAdd/ReadVariableOp", "op": "Const", "attr": {"value": {"tensor": {"dtype": "DT_FLOAT", "tensorShape": {"dim": [{"size": "128"}]}}}, "dtype": {"type": "DT_FLOAT"}}}, {"name": "StatefulPartitionedCall/neural_network_2/res_mlp_2/sequential_2/res_mlp_block_16/mul_4/x", "op": "Const", "attr": {"value": {"tensor": {"dtype": "DT_FLOAT", "tensorShape": {}}}, "dtype": {"type": "DT_FLOAT"}}}, {"name": "StatefulPartitionedCall/neural_network_2/res_mlp_2/sequential_2/res_mlp_block_16/add_3/x", "op": "Const", "attr": {"dtype": {"type": "DT_FLOAT"}, "value": {"tensor": {"dtype": "DT_FLOAT", "tensorShape": {}}}}}, {"name": "StatefulPartitionedCall/neural_network_2/res_mlp_2/sequential_2/res_mlp_block_16/mul_6/x", "op": "Const", "attr": {"value": {"tensor": {"dtype": "DT_FLOAT", "tensorShape": {}}}, "dtype": {"type": "DT_FLOAT"}}}, {"name": "StatefulPartitionedCall/neural_network_2/res_mlp_2/sequential_2/res_mlp_block_16/mul_5/x", "op": "Const", "attr": {"dtype": {"type": "DT_FLOAT"}, "value": {"tensor": {"dtype": "DT_FLOAT", "tensorShape": {}}}}}, {"name": "StatefulPartitionedCall/neural_network_2/res_mlp_2/sequential_2/res_mlp_block_16/mul/x", "op": "Const", "attr": {"value": {"tensor": {"dtype": "DT_FLOAT", "tensorShape": {}}}, "dtype": {"type": "DT_FLOAT"}}}, {"name": "StatefulPartitionedCall/neural_network_2/res_mlp_2/sequential_2/res_mlp_block_16/add_1/x", "op": "Const", "attr": {"dtype": {"type": "DT_FLOAT"}, "value": {"tensor": {"dtype": "DT_FLOAT", "tensorShape": {}}}}}, {"name": "StatefulPartitionedCall/neural_network_2/res_mlp_2/sequential_2/res_mlp_block_16/mul_2/x", "op": "Const", "attr": {"dtype": {"type": "DT_FLOAT"}, "value": {"tensor": {"dtype": "DT_FLOAT", "tensorShape": {}}}}}, {"name": "StatefulPartitionedCall/neural_network_2/res_mlp_2/sequential_2/res_mlp_block_16/mul_1/x", "op": "Const", "attr": {"dtype": {"type": "DT_FLOAT"}, "value": {"tensor": {"dtype": "DT_FLOAT", "tensorShape": {}}}}}, {"name": "StatefulPartitionedCall/neural_network_2/res_mlp_2/sequential_2/res_mlp_block_15/dense_111/MatMul/ReadVariableOp", "op": "Const", "attr": {"dtype": {"type": "DT_FLOAT"}, "value": {"tensor": {"dtype": "DT_FLOAT", "tensorShape": {"dim": [{"size": "64"}, {"size": "64"}]}}}}}, {"name": "StatefulPartitionedCall/neural_network_2/res_mlp_2/sequential_2/res_mlp_block_15/dense_111/BiasAdd/ReadVariableOp", "op": "Const", "attr": {"value": {"tensor": {"dtype": "DT_FLOAT", "tensorShape": {"dim": [{"size": "64"}]}}}, "dtype": {"type": "DT_FLOAT"}}}, {"name": "StatefulPartitionedCall/neural_network_2/res_mlp_2/sequential_2/res_mlp_block_15/dense_112/MatMul/ReadVariableOp", "op": "Const", "attr": {"value": {"tensor": {"dtype": "DT_FLOAT", "tensorShape": {"dim": [{"size": "64"}, {"size": "64"}]}}}, "dtype": {"type": "DT_FLOAT"}}}, {"name": "StatefulPartitionedCall/neural_network_2/res_mlp_2/sequential_2/res_mlp_block_15/dense_112/BiasAdd/ReadVariableOp", "op": "Const", "attr": {"value": {"tensor": {"dtype": "DT_FLOAT", "tensorShape": {"dim": [{"size": "64"}]}}}, "dtype": {"type": "DT_FLOAT"}}}, {"name": "StatefulPartitionedCall/neural_network_2/res_mlp_2/sequential_2/res_mlp_block_14/dense_107/MatMul/ReadVariableOp", "op": "Const", "attr": {"value": {"tensor": {"dtype": "DT_FLOAT", "tensorShape": {"dim": [{"size": "32"}, {"size": "64"}]}}}, "dtype": {"type": "DT_FLOAT"}}}, {"name": "StatefulPartitionedCall/neural_network_2/res_mlp_2/sequential_2/res_mlp_block_14/dense_107/BiasAdd/ReadVariableOp", "op": "Const", "attr": {"value": {"tensor": {"dtype": "DT_FLOAT", "tensorShape": {"dim": [{"size": "64"}]}}}, "dtype": {"type": "DT_FLOAT"}}}, {"name": "StatefulPartitionedCall/neural_network_2/res_mlp_2/sequential_2/res_mlp_block_14/dense_108/MatMul/ReadVariableOp", "op": "Const", "attr": {"value": {"tensor": {"dtype": "DT_FLOAT", "tensorShape": {"dim": [{"size": "64"}, {"size": "64"}]}}}, "dtype": {"type": "DT_FLOAT"}}}, {"name": "StatefulPartitionedCall/neural_network_2/res_mlp_2/sequential_2/res_mlp_block_14/dense_108/BiasAdd/ReadVariableOp", "op": "Const", "attr": {"value": {"tensor": {"dtype": "DT_FLOAT", "tensorShape": {"dim": [{"size": "64"}]}}}, "dtype": {"type": "DT_FLOAT"}}}, {"name": "StatefulPartitionedCall/neural_network_2/res_mlp_2/sequential_2/res_mlp_block_14/mul_4/x", "op": "Const", "attr": {"value": {"tensor": {"dtype": "DT_FLOAT", "tensorShape": {}}}, "dtype": {"type": "DT_FLOAT"}}}, {"name": "StatefulPartitionedCall/neural_network_2/res_mlp_2/sequential_2/res_mlp_block_14/add_3/x", "op": "Const", "attr": {"value": {"tensor": {"dtype": "DT_FLOAT", "tensorShape": {}}}, "dtype": {"type": "DT_FLOAT"}}}, {"name": "StatefulPartitionedCall/neural_network_2/res_mlp_2/sequential_2/res_mlp_block_14/mul_6/x", "op": "Const", "attr": {"value": {"tensor": {"dtype": "DT_FLOAT", "tensorShape": {}}}, "dtype": {"type": "DT_FLOAT"}}}, {"name": "StatefulPartitionedCall/neural_network_2/res_mlp_2/sequential_2/res_mlp_block_14/mul_5/x", "op": "Const", "attr": {"value": {"tensor": {"dtype": "DT_FLOAT", "tensorShape": {}}}, "dtype": {"type": "DT_FLOAT"}}}, {"name": "StatefulPartitionedCall/neural_network_2/res_mlp_2/sequential_2/res_mlp_block_14/mul/x", "op": "Const", "attr": {"dtype": {"type": "DT_FLOAT"}, "value": {"tensor": {"dtype": "DT_FLOAT", "tensorShape": {}}}}}, {"name": "StatefulPartitionedCall/neural_network_2/res_mlp_2/sequential_2/res_mlp_block_14/add_1/x", "op": "Const", "attr": {"value": {"tensor": {"dtype": "DT_FLOAT", "tensorShape": {}}}, "dtype": {"type": "DT_FLOAT"}}}, {"name": "StatefulPartitionedCall/neural_network_2/res_mlp_2/sequential_2/res_mlp_block_14/mul_2/x", "op": "Const", "attr": {"value": {"tensor": {"dtype": "DT_FLOAT", "tensorShape": {}}}, "dtype": {"type": "DT_FLOAT"}}}, {"name": "StatefulPartitionedCall/neural_network_2/res_mlp_2/sequential_2/res_mlp_block_14/mul_1/x", "op": "Const", "attr": {"value": {"tensor": {"dtype": "DT_FLOAT", "tensorShape": {}}}, "dtype": {"type": "DT_FLOAT"}}}, {"name": "StatefulPartitionedCall/neural_network_2/res_mlp_2/sequential_2/res_mlp_block_13/dense_105/MatMul/ReadVariableOp", "op": "Const", "attr": {"value": {"tensor": {"dtype": "DT_FLOAT", "tensorShape": {"dim": [{"size": "32"}, {"size": "32"}]}}}, "dtype": {"type": "DT_FLOAT"}}}, {"name": "StatefulPartitionedCall/neural_network_2/res_mlp_2/sequential_2/res_mlp_block_13/dense_105/BiasAdd/ReadVariableOp", "op": "Const", "attr": {"dtype": {"type": "DT_FLOAT"}, "value": {"tensor": {"dtype": "DT_FLOAT", "tensorShape": {"dim": [{"size": "32"}]}}}}}, {"name": "StatefulPartitionedCall/neural_network_2/res_mlp_2/sequential_2/res_mlp_block_13/dense_106/MatMul/ReadVariableOp", "op": "Const", "attr": {"value": {"tensor": {"dtype": "DT_FLOAT", "tensorShape": {"dim": [{"size": "32"}, {"size": "32"}]}}}, "dtype": {"type": "DT_FLOAT"}}}, {"name": "StatefulPartitionedCall/neural_network_2/res_mlp_2/sequential_2/res_mlp_block_13/dense_106/BiasAdd/ReadVariableOp", "op": "Const", "attr": {"value": {"tensor": {"dtype": "DT_FLOAT", "tensorShape": {"dim": [{"size": "32"}]}}}, "dtype": {"type": "DT_FLOAT"}}}, {"name": "StatefulPartitionedCall/neural_network_2/res_mlp_2/sequential_2/res_mlp_block_12/dense_103/MatMul/ReadVariableOp", "op": "Const", "attr": {"value": {"tensor": {"dtype": "DT_FLOAT", "tensorShape": {"dim": [{"size": "32"}, {"size": "32"}]}}}, "dtype": {"type": "DT_FLOAT"}}}, {"name": "StatefulPartitionedCall/neural_network_2/res_mlp_2/sequential_2/res_mlp_block_12/dense_103/BiasAdd/ReadVariableOp", "op": "Const", "attr": {"value": {"tensor": {"dtype": "DT_FLOAT", "tensorShape": {"dim": [{"size": "32"}]}}}, "dtype": {"type": "DT_FLOAT"}}}, {"name": "StatefulPartitionedCall/neural_network_2/res_mlp_2/sequential_2/res_mlp_block_12/dense_104/MatMul/ReadVariableOp", "op": "Const", "attr": {"value": {"tensor": {"dtype": "DT_FLOAT", "tensorShape": {"dim": [{"size": "32"}, {"size": "32"}]}}}, "dtype": {"type": "DT_FLOAT"}}}, {"name": "StatefulPartitionedCall/neural_network_2/res_mlp_2/sequential_2/res_mlp_block_12/dense_104/BiasAdd/ReadVariableOp", "op": "Const", "attr": {"value": {"tensor": {"dtype": "DT_FLOAT", "tensorShape": {"dim": [{"size": "32"}]}}}, "dtype": {"type": "DT_FLOAT"}}}, {"name": "ConstantFolding/StatefulPartitionedCall/neural_network_2/mobile_net_v3_small_2/truediv_2_recip", "op": "Const", "attr": {"dtype": {"type": "DT_FLOAT"}, "value": {"tensor": {"dtype": "DT_FLOAT", "tensorShape": {}}}}}, {"name": "ConstantFolding/StatefulPartitionedCall/neural_network_2/mobile_net_v3_small_2/truediv_1_recip", "op": "Const", "attr": {"value": {"tensor": {"dtype": "DT_FLOAT", "tensorShape": {}}}, "dtype": {"type": "DT_FLOAT"}}}, {"name": "ConstantFolding/StatefulPartitionedCall/neural_network_2/mobile_net_v3_small_2/bottle_neck_32/truediv_1_recip", "op": "Const", "attr": {"value": {"tensor": {"dtype": "DT_FLOAT", "tensorShape": {}}}, "dtype": {"type": "DT_FLOAT"}}}, {"name": "ConstantFolding/StatefulPartitionedCall/neural_network_2/mobile_net_v3_small_2/bottle_neck_32/truediv_recip", "op": "Const", "attr": {"dtype": {"type": "DT_FLOAT"}, "value": {"tensor": {"dtype": "DT_FLOAT", "tensorShape": {}}}}}, {"name": "StatefulPartitionedCall/neural_network_2/mobile_net_v3_small_2/bottle_neck_32/add/y", "op": "Const", "attr": {"value": {"tensor": {"dtype": "DT_FLOAT", "tensorShape": {}}}, "dtype": {"type": "DT_FLOAT"}}}, {"name": "StatefulPartitionedCall/neural_network_2/mobile_net_v3_small_2/bottle_neck_32/add_1/y", "op": "Const", "attr": {"dtype": {"type": "DT_FLOAT"}, "value": {"tensor": {"dtype": "DT_FLOAT", "tensorShape": {}}}}}, {"name": "StatefulPartitionedCall/neural_network_2/mobile_net_v3_small_2/bottle_neck_32/se_block_32/global_average_pooling2d_34/Mean/reduction_indices", "op": "Const", "attr": {"dtype": {"type": "DT_INT32"}, "value": {"tensor": {"dtype": "DT_INT32", "tensorShape": {"dim": [{"size": "2"}]}}}}}, {"name": "StatefulPartitionedCall/neural_network_2/mobile_net_v3_small_2/bottle_neck_32/se_block_32/dense_100/MatMul/ReadVariableOp", "op": "Const", "attr": {"dtype": {"type": "DT_FLOAT"}, "value": {"tensor": {"dtype": "DT_FLOAT", "tensorShape": {"dim": [{"size": "576"}, {"size": "36"}]}}}}}, {"name": "StatefulPartitionedCall/neural_network_2/mobile_net_v3_small_2/bottle_neck_32/se_block_32/dense_100/BiasAdd/ReadVariableOp", "op": "Const", "attr": {"value": {"tensor": {"dtype": "DT_FLOAT", "tensorShape": {"dim": [{"size": "36"}]}}}, "dtype": {"type": "DT_FLOAT"}}}, {"name": "StatefulPartitionedCall/neural_network_2/mobile_net_v3_small_2/bottle_neck_32/se_block_32/dense_101/MatMul/ReadVariableOp", "op": "Const", "attr": {"value": {"tensor": {"dtype": "DT_FLOAT", "tensorShape": {"dim": [{"size": "36"}, {"size": "576"}]}}}, "dtype": {"type": "DT_FLOAT"}}}, {"name": "StatefulPartitionedCall/neural_network_2/mobile_net_v3_small_2/bottle_neck_32/se_block_32/dense_101/BiasAdd/ReadVariableOp", "op": "Const", "attr": {"value": {"tensor": {"dtype": "DT_FLOAT", "tensorShape": {"dim": [{"size": "576"}]}}}, "dtype": {"type": "DT_FLOAT"}}}, {"name": "StatefulPartitionedCall/neural_network_2/mobile_net_v3_small_2/bottle_neck_32/se_block_32/add/y", "op": "Const", "attr": {"value": {"tensor": {"dtype": "DT_FLOAT", "tensorShape": {}}}, "dtype": {"type": "DT_FLOAT"}}}, {"name": "ConstantFolding/StatefulPartitionedCall/neural_network_2/mobile_net_v3_small_2/bottle_neck_32/se_block_32/truediv_recip", "op": "Const", "attr": {"value": {"tensor": {"dtype": "DT_FLOAT", "tensorShape": {}}}, "dtype": {"type": "DT_FLOAT"}}}, {"name": "StatefulPartitionedCall/neural_network_2/mobile_net_v3_small_2/bottle_neck_32/se_block_32/ExpandDims/dim", "op": "Const", "attr": {"value": {"tensor": {"dtype": "DT_INT32", "tensorShape": {}}}, "dtype": {"type": "DT_INT32"}}}, {"name": "StatefulPartitionedCall/neural_network_2/mobile_net_v3_small_2/bottle_neck_32/se_block_32/ExpandDims_1/dim", "op": "Const", "attr": {"value": {"tensor": {"dtype": "DT_INT32", "tensorShape": {}}}, "dtype": {"type": "DT_INT32"}}}, {"name": "ConstantFolding/StatefulPartitionedCall/neural_network_2/mobile_net_v3_small_2/bottle_neck_31/truediv_1_recip", "op": "Const", "attr": {"value": {"tensor": {"dtype": "DT_FLOAT", "tensorShape": {}}}, "dtype": {"type": "DT_FLOAT"}}}, {"name": "ConstantFolding/StatefulPartitionedCall/neural_network_2/mobile_net_v3_small_2/bottle_neck_31/truediv_recip", "op": "Const", "attr": {"value": {"tensor": {"dtype": "DT_FLOAT", "tensorShape": {}}}, "dtype": {"type": "DT_FLOAT"}}}, {"name": "StatefulPartitionedCall/neural_network_2/mobile_net_v3_small_2/bottle_neck_31/add/y", "op": "Const", "attr": {"value": {"tensor": {"dtype": "DT_FLOAT", "tensorShape": {}}}, "dtype": {"type": "DT_FLOAT"}}}, {"name": "StatefulPartitionedCall/neural_network_2/mobile_net_v3_small_2/bottle_neck_31/add_1/y", "op": "Const", "attr": {"value": {"tensor": {"dtype": "DT_FLOAT", "tensorShape": {}}}, "dtype": {"type": "DT_FLOAT"}}}, {"name": "StatefulPartitionedCall/neural_network_2/mobile_net_v3_small_2/bottle_neck_31/se_block_31/global_average_pooling2d_33/Mean/reduction_indices", "op": "Const", "attr": {"value": {"tensor": {"dtype": "DT_INT32", "tensorShape": {"dim": [{"size": "2"}]}}}, "dtype": {"type": "DT_INT32"}}}, {"name": "StatefulPartitionedCall/neural_network_2/mobile_net_v3_small_2/bottle_neck_31/se_block_31/dense_98/MatMul/ReadVariableOp", "op": "Const", "attr": {"value": {"tensor": {"dtype": "DT_FLOAT", "tensorShape": {"dim": [{"size": "576"}, {"size": "36"}]}}}, "dtype": {"type": "DT_FLOAT"}}}, {"name": "StatefulPartitionedCall/neural_network_2/mobile_net_v3_small_2/bottle_neck_31/se_block_31/dense_98/BiasAdd/ReadVariableOp", "op": "Const", "attr": {"value": {"tensor": {"dtype": "DT_FLOAT", "tensorShape": {"dim": [{"size": "36"}]}}}, "dtype": {"type": "DT_FLOAT"}}}, {"name": "StatefulPartitionedCall/neural_network_2/mobile_net_v3_small_2/bottle_neck_31/se_block_31/dense_99/MatMul/ReadVariableOp", "op": "Const", "attr": {"dtype": {"type": "DT_FLOAT"}, "value": {"tensor": {"dtype": "DT_FLOAT", "tensorShape": {"dim": [{"size": "36"}, {"size": "576"}]}}}}}, {"name": "StatefulPartitionedCall/neural_network_2/mobile_net_v3_small_2/bottle_neck_31/se_block_31/dense_99/BiasAdd/ReadVariableOp", "op": "Const", "attr": {"value": {"tensor": {"dtype": "DT_FLOAT", "tensorShape": {"dim": [{"size": "576"}]}}}, "dtype": {"type": "DT_FLOAT"}}}, {"name": "StatefulPartitionedCall/neural_network_2/mobile_net_v3_small_2/bottle_neck_31/se_block_31/add/y", "op": "Const", "attr": {"dtype": {"type": "DT_FLOAT"}, "value": {"tensor": {"dtype": "DT_FLOAT", "tensorShape": {}}}}}, {"name": "ConstantFolding/StatefulPartitionedCall/neural_network_2/mobile_net_v3_small_2/bottle_neck_31/se_block_31/truediv_recip", "op": "Const", "attr": {"value": {"tensor": {"dtype": "DT_FLOAT", "tensorShape": {}}}, "dtype": {"type": "DT_FLOAT"}}}, {"name": "StatefulPartitionedCall/neural_network_2/mobile_net_v3_small_2/bottle_neck_31/se_block_31/ExpandDims/dim", "op": "Const", "attr": {"value": {"tensor": {"dtype": "DT_INT32", "tensorShape": {}}}, "dtype": {"type": "DT_INT32"}}}, {"name": "StatefulPartitionedCall/neural_network_2/mobile_net_v3_small_2/bottle_neck_31/se_block_31/ExpandDims_1/dim", "op": "Const", "attr": {"value": {"tensor": {"dtype": "DT_INT32", "tensorShape": {}}}, "dtype": {"type": "DT_INT32"}}}, {"name": "ConstantFolding/StatefulPartitionedCall/neural_network_2/mobile_net_v3_small_2/bottle_neck_30/truediv_1_recip", "op": "Const", "attr": {"value": {"tensor": {"dtype": "DT_FLOAT", "tensorShape": {}}}, "dtype": {"type": "DT_FLOAT"}}}, {"name": "ConstantFolding/StatefulPartitionedCall/neural_network_2/mobile_net_v3_small_2/bottle_neck_30/truediv_recip", "op": "Const", "attr": {"value": {"tensor": {"dtype": "DT_FLOAT", "tensorShape": {}}}, "dtype": {"type": "DT_FLOAT"}}}, {"name": "ConstantFolding/StatefulPartitionedCall/neural_network_2/mobile_net_v3_small_2/bottle_neck_29/truediv_1_recip", "op": "Const", "attr": {"value": {"tensor": {"dtype": "DT_FLOAT", "tensorShape": {}}}, "dtype": {"type": "DT_FLOAT"}}}, {"name": "ConstantFolding/StatefulPartitionedCall/neural_network_2/mobile_net_v3_small_2/bottle_neck_29/truediv_recip", "op": "Const", "attr": {"value": {"tensor": {"dtype": "DT_FLOAT", "tensorShape": {}}}, "dtype": {"type": "DT_FLOAT"}}}, {"name": "StatefulPartitionedCall/neural_network_2/mobile_net_v3_small_2/bottle_neck_29/add/y", "op": "Const", "attr": {"dtype": {"type": "DT_FLOAT"}, "value": {"tensor": {"dtype": "DT_FLOAT", "tensorShape": {}}}}}, {"name": "StatefulPartitionedCall/neural_network_2/mobile_net_v3_small_2/bottle_neck_29/add_1/y", "op": "Const", "attr": {"value": {"tensor": {"dtype": "DT_FLOAT", "tensorShape": {}}}, "dtype": {"type": "DT_FLOAT"}}}, {"name": "StatefulPartitionedCall/neural_network_2/mobile_net_v3_small_2/bottle_neck_29/se_block_29/global_average_pooling2d_31/Mean/reduction_indices", "op": "Const", "attr": {"dtype": {"type": "DT_INT32"}, "value": {"tensor": {"dtype": "DT_INT32", "tensorShape": {"dim": [{"size": "2"}]}}}}}, {"name": "StatefulPartitionedCall/neural_network_2/mobile_net_v3_small_2/bottle_neck_29/se_block_29/dense_94/MatMul/ReadVariableOp", "op": "Const", "attr": {"value": {"tensor": {"dtype": "DT_FLOAT", "tensorShape": {"dim": [{"size": "144"}, {"size": "9"}]}}}, "dtype": {"type": "DT_FLOAT"}}}, {"name": "StatefulPartitionedCall/neural_network_2/mobile_net_v3_small_2/bottle_neck_29/se_block_29/dense_94/BiasAdd/ReadVariableOp", "op": "Const", "attr": {"value": {"tensor": {"dtype": "DT_FLOAT", "tensorShape": {"dim": [{"size": "9"}]}}}, "dtype": {"type": "DT_FLOAT"}}}, {"name": "StatefulPartitionedCall/neural_network_2/mobile_net_v3_small_2/bottle_neck_29/se_block_29/dense_95/MatMul/ReadVariableOp", "op": "Const", "attr": {"value": {"tensor": {"dtype": "DT_FLOAT", "tensorShape": {"dim": [{"size": "9"}, {"size": "144"}]}}}, "dtype": {"type": "DT_FLOAT"}}}, {"name": "StatefulPartitionedCall/neural_network_2/mobile_net_v3_small_2/bottle_neck_29/se_block_29/dense_95/BiasAdd/ReadVariableOp", "op": "Const", "attr": {"dtype": {"type": "DT_FLOAT"}, "value": {"tensor": {"dtype": "DT_FLOAT", "tensorShape": {"dim": [{"size": "144"}]}}}}}, {"name": "StatefulPartitionedCall/neural_network_2/mobile_net_v3_small_2/bottle_neck_29/se_block_29/add/y", "op": "Const", "attr": {"dtype": {"type": "DT_FLOAT"}, "value": {"tensor": {"dtype": "DT_FLOAT", "tensorShape": {}}}}}, {"name": "ConstantFolding/StatefulPartitionedCall/neural_network_2/mobile_net_v3_small_2/bottle_neck_29/se_block_29/truediv_recip", "op": "Const", "attr": {"dtype": {"type": "DT_FLOAT"}, "value": {"tensor": {"dtype": "DT_FLOAT", "tensorShape": {}}}}}, {"name": "StatefulPartitionedCall/neural_network_2/mobile_net_v3_small_2/bottle_neck_29/se_block_29/ExpandDims/dim", "op": "Const", "attr": {"dtype": {"type": "DT_INT32"}, "value": {"tensor": {"dtype": "DT_INT32", "tensorShape": {}}}}}, {"name": "StatefulPartitionedCall/neural_network_2/mobile_net_v3_small_2/bottle_neck_29/se_block_29/ExpandDims_1/dim", "op": "Const", "attr": {"value": {"tensor": {"dtype": "DT_INT32", "tensorShape": {}}}, "dtype": {"type": "DT_INT32"}}}, {"name": "ConstantFolding/StatefulPartitionedCall/neural_network_2/mobile_net_v3_small_2/bottle_neck_28/truediv_1_recip", "op": "Const", "attr": {"dtype": {"type": "DT_FLOAT"}, "value": {"tensor": {"dtype": "DT_FLOAT", "tensorShape": {}}}}}, {"name": "ConstantFolding/StatefulPartitionedCall/neural_network_2/mobile_net_v3_small_2/bottle_neck_28/truediv_recip", "op": "Const", "attr": {"value": {"tensor": {"dtype": "DT_FLOAT", "tensorShape": {}}}, "dtype": {"type": "DT_FLOAT"}}}, {"name": "ConstantFolding/StatefulPartitionedCall/neural_network_2/mobile_net_v3_small_2/bottle_neck_27/truediv_1_recip", "op": "Const", "attr": {"dtype": {"type": "DT_FLOAT"}, "value": {"tensor": {"dtype": "DT_FLOAT", "tensorShape": {}}}}}, {"name": "ConstantFolding/StatefulPartitionedCall/neural_network_2/mobile_net_v3_small_2/bottle_neck_27/truediv_recip", "op": "Const", "attr": {"dtype": {"type": "DT_FLOAT"}, "value": {"tensor": {"dtype": "DT_FLOAT", "tensorShape": {}}}}}, {"name": "StatefulPartitionedCall/neural_network_2/mobile_net_v3_small_2/bottle_neck_27/add/y", "op": "Const", "attr": {"value": {"tensor": {"dtype": "DT_FLOAT", "tensorShape": {}}}, "dtype": {"type": "DT_FLOAT"}}}, {"name": "StatefulPartitionedCall/neural_network_2/mobile_net_v3_small_2/bottle_neck_27/add_1/y", "op": "Const", "attr": {"value": {"tensor": {"dtype": "DT_FLOAT", "tensorShape": {}}}, "dtype": {"type": "DT_FLOAT"}}}, {"name": "StatefulPartitionedCall/neural_network_2/mobile_net_v3_small_2/bottle_neck_27/se_block_27/global_average_pooling2d_29/Mean/reduction_indices", "op": "Const", "attr": {"dtype": {"type": "DT_INT32"}, "value": {"tensor": {"dtype": "DT_INT32", "tensorShape": {"dim": [{"size": "2"}]}}}}}, {"name": "StatefulPartitionedCall/neural_network_2/mobile_net_v3_small_2/bottle_neck_27/se_block_27/dense_90/MatMul/ReadVariableOp", "op": "Const", "attr": {"value": {"tensor": {"dtype": "DT_FLOAT", "tensorShape": {"dim": [{"size": "240"}, {"size": "15"}]}}}, "dtype": {"type": "DT_FLOAT"}}}, {"name": "StatefulPartitionedCall/neural_network_2/mobile_net_v3_small_2/bottle_neck_27/se_block_27/dense_90/BiasAdd/ReadVariableOp", "op": "Const", "attr": {"dtype": {"type": "DT_FLOAT"}, "value": {"tensor": {"dtype": "DT_FLOAT", "tensorShape": {"dim": [{"size": "15"}]}}}}}, {"name": "StatefulPartitionedCall/neural_network_2/mobile_net_v3_small_2/bottle_neck_27/se_block_27/dense_91/MatMul/ReadVariableOp", "op": "Const", "attr": {"dtype": {"type": "DT_FLOAT"}, "value": {"tensor": {"dtype": "DT_FLOAT", "tensorShape": {"dim": [{"size": "15"}, {"size": "240"}]}}}}}, {"name": "StatefulPartitionedCall/neural_network_2/mobile_net_v3_small_2/bottle_neck_27/se_block_27/dense_91/BiasAdd/ReadVariableOp", "op": "Const", "attr": {"dtype": {"type": "DT_FLOAT"}, "value": {"tensor": {"dtype": "DT_FLOAT", "tensorShape": {"dim": [{"size": "240"}]}}}}}, {"name": "StatefulPartitionedCall/neural_network_2/mobile_net_v3_small_2/bottle_neck_27/se_block_27/add/y", "op": "Const", "attr": {"value": {"tensor": {"dtype": "DT_FLOAT", "tensorShape": {}}}, "dtype": {"type": "DT_FLOAT"}}}, {"name": "ConstantFolding/StatefulPartitionedCall/neural_network_2/mobile_net_v3_small_2/bottle_neck_27/se_block_27/truediv_recip", "op": "Const", "attr": {"value": {"tensor": {"dtype": "DT_FLOAT", "tensorShape": {}}}, "dtype": {"type": "DT_FLOAT"}}}, {"name": "StatefulPartitionedCall/neural_network_2/mobile_net_v3_small_2/bottle_neck_27/se_block_27/ExpandDims/dim", "op": "Const", "attr": {"value": {"tensor": {"dtype": "DT_INT32", "tensorShape": {}}}, "dtype": {"type": "DT_INT32"}}}, {"name": "StatefulPartitionedCall/neural_network_2/mobile_net_v3_small_2/bottle_neck_27/se_block_27/ExpandDims_1/dim", "op": "Const", "attr": {"value": {"tensor": {"dtype": "DT_INT32", "tensorShape": {}}}, "dtype": {"type": "DT_INT32"}}}, {"name": "ConstantFolding/StatefulPartitionedCall/neural_network_2/mobile_net_v3_small_2/bottle_neck_26/truediv_1_recip", "op": "Const", "attr": {"dtype": {"type": "DT_FLOAT"}, "value": {"tensor": {"dtype": "DT_FLOAT", "tensorShape": {}}}}}, {"name": "ConstantFolding/StatefulPartitionedCall/neural_network_2/mobile_net_v3_small_2/bottle_neck_26/truediv_recip", "op": "Const", "attr": {"value": {"tensor": {"dtype": "DT_FLOAT", "tensorShape": {}}}, "dtype": {"type": "DT_FLOAT"}}}, {"name": "StatefulPartitionedCall/neural_network_2/mobile_net_v3_small_2/bottle_neck_26/add/y", "op": "Const", "attr": {"dtype": {"type": "DT_FLOAT"}, "value": {"tensor": {"dtype": "DT_FLOAT", "tensorShape": {}}}}}, {"name": "StatefulPartitionedCall/neural_network_2/mobile_net_v3_small_2/bottle_neck_26/add_1/y", "op": "Const", "attr": {"dtype": {"type": "DT_FLOAT"}, "value": {"tensor": {"dtype": "DT_FLOAT", "tensorShape": {}}}}}, {"name": "StatefulPartitionedCall/neural_network_2/mobile_net_v3_small_2/bottle_neck_26/se_block_26/global_average_pooling2d_28/Mean/reduction_indices", "op": "Const", "attr": {"dtype": {"type": "DT_INT32"}, "value": {"tensor": {"dtype": "DT_INT32", "tensorShape": {"dim": [{"size": "2"}]}}}}}, {"name": "StatefulPartitionedCall/neural_network_2/mobile_net_v3_small_2/bottle_neck_26/se_block_26/dense_88/MatMul/ReadVariableOp", "op": "Const", "attr": {"dtype": {"type": "DT_FLOAT"}, "value": {"tensor": {"dtype": "DT_FLOAT", "tensorShape": {"dim": [{"size": "240"}, {"size": "15"}]}}}}}, {"name": "StatefulPartitionedCall/neural_network_2/mobile_net_v3_small_2/bottle_neck_26/se_block_26/dense_88/BiasAdd/ReadVariableOp", "op": "Const", "attr": {"value": {"tensor": {"dtype": "DT_FLOAT", "tensorShape": {"dim": [{"size": "15"}]}}}, "dtype": {"type": "DT_FLOAT"}}}, {"name": "StatefulPartitionedCall/neural_network_2/mobile_net_v3_small_2/bottle_neck_26/se_block_26/dense_89/MatMul/ReadVariableOp", "op": "Const", "attr": {"dtype": {"type": "DT_FLOAT"}, "value": {"tensor": {"dtype": "DT_FLOAT", "tensorShape": {"dim": [{"size": "15"}, {"size": "240"}]}}}}}, {"name": "StatefulPartitionedCall/neural_network_2/mobile_net_v3_small_2/bottle_neck_26/se_block_26/dense_89/BiasAdd/ReadVariableOp", "op": "Const", "attr": {"value": {"tensor": {"dtype": "DT_FLOAT", "tensorShape": {"dim": [{"size": "240"}]}}}, "dtype": {"type": "DT_FLOAT"}}}, {"name": "StatefulPartitionedCall/neural_network_2/mobile_net_v3_small_2/bottle_neck_26/se_block_26/add/y", "op": "Const", "attr": {"dtype": {"type": "DT_FLOAT"}, "value": {"tensor": {"dtype": "DT_FLOAT", "tensorShape": {}}}}}, {"name": "ConstantFolding/StatefulPartitionedCall/neural_network_2/mobile_net_v3_small_2/bottle_neck_26/se_block_26/truediv_recip", "op": "Const", "attr": {"value": {"tensor": {"dtype": "DT_FLOAT", "tensorShape": {}}}, "dtype": {"type": "DT_FLOAT"}}}, {"name": "StatefulPartitionedCall/neural_network_2/mobile_net_v3_small_2/bottle_neck_26/se_block_26/ExpandDims/dim", "op": "Const", "attr": {"value": {"tensor": {"dtype": "DT_INT32", "tensorShape": {}}}, "dtype": {"type": "DT_INT32"}}}, {"name": "StatefulPartitionedCall/neural_network_2/mobile_net_v3_small_2/bottle_neck_26/se_block_26/ExpandDims_1/dim", "op": "Const", "attr": {"dtype": {"type": "DT_INT32"}, "value": {"tensor": {"dtype": "DT_INT32", "tensorShape": {}}}}}, {"name": "ConstantFolding/StatefulPartitionedCall/neural_network_2/mobile_net_v3_small_2/bottle_neck_25/truediv_1_recip", "op": "Const", "attr": {"value": {"tensor": {"dtype": "DT_FLOAT", "tensorShape": {}}}, "dtype": {"type": "DT_FLOAT"}}}, {"name": "ConstantFolding/StatefulPartitionedCall/neural_network_2/mobile_net_v3_small_2/bottle_neck_25/truediv_recip", "op": "Const", "attr": {"value": {"tensor": {"dtype": "DT_FLOAT", "tensorShape": {}}}, "dtype": {"type": "DT_FLOAT"}}}, {"name": "ConstantFolding/StatefulPartitionedCall/neural_network_2/mobile_net_v3_small_2/truediv_recip", "op": "Const", "attr": {"dtype": {"type": "DT_FLOAT"}, "value": {"tensor": {"dtype": "DT_FLOAT", "tensorShape": {}}}}}, {"name": "StatefulPartitionedCall/neural_network_2/mobile_net_v3_small_2/add/y", "op": "Const", "attr": {"dtype": {"type": "DT_FLOAT"}, "value": {"tensor": {"dtype": "DT_FLOAT", "tensorShape": {}}}}}, {"name": "StatefulPartitionedCall/neural_network_2/mobile_net_v3_small_2/bottle_neck_22/se_block_22/global_average_pooling2d_24/Mean/reduction_indices", "op": "Const", "attr": {"dtype": {"type": "DT_INT32"}, "value": {"tensor": {"dtype": "DT_INT32", "tensorShape": {"dim": [{"size": "2"}]}}}}}, {"name": "StatefulPartitionedCall/neural_network_2/mobile_net_v3_small_2/bottle_neck_22/se_block_22/dense_80/MatMul/ReadVariableOp", "op": "Const", "attr": {"value": {"tensor": {"dtype": "DT_FLOAT", "tensorShape": {"dim": [{"size": "16"}, {"size": "1"}]}}}, "dtype": {"type": "DT_FLOAT"}}}, {"name": "StatefulPartitionedCall/neural_network_2/mobile_net_v3_small_2/bottle_neck_22/se_block_22/dense_80/BiasAdd/ReadVariableOp", "op": "Const", "attr": {"dtype": {"type": "DT_FLOAT"}, "value": {"tensor": {"dtype": "DT_FLOAT", "tensorShape": {"dim": [{"size": "1"}]}}}}}, {"name": "StatefulPartitionedCall/neural_network_2/mobile_net_v3_small_2/bottle_neck_22/se_block_22/dense_81/MatMul/ReadVariableOp", "op": "Const", "attr": {"dtype": {"type": "DT_FLOAT"}, "value": {"tensor": {"dtype": "DT_FLOAT", "tensorShape": {"dim": [{"size": "1"}, {"size": "16"}]}}}}}, {"name": "StatefulPartitionedCall/neural_network_2/mobile_net_v3_small_2/bottle_neck_22/se_block_22/dense_81/BiasAdd/ReadVariableOp", "op": "Const", "attr": {"value": {"tensor": {"dtype": "DT_FLOAT", "tensorShape": {"dim": [{"size": "16"}]}}}, "dtype": {"type": "DT_FLOAT"}}}, {"name": "StatefulPartitionedCall/neural_network_2/mobile_net_v3_small_2/bottle_neck_22/se_block_22/add/y", "op": "Const", "attr": {"value": {"tensor": {"dtype": "DT_FLOAT", "tensorShape": {}}}, "dtype": {"type": "DT_FLOAT"}}}, {"name": "ConstantFolding/StatefulPartitionedCall/neural_network_2/mobile_net_v3_small_2/bottle_neck_22/se_block_22/truediv_recip", "op": "Const", "attr": {"value": {"tensor": {"dtype": "DT_FLOAT", "tensorShape": {}}}, "dtype": {"type": "DT_FLOAT"}}}, {"name": "StatefulPartitionedCall/neural_network_2/mobile_net_v3_small_2/bottle_neck_22/se_block_22/ExpandDims/dim", "op": "Const", "attr": {"dtype": {"type": "DT_INT32"}, "value": {"tensor": {"dtype": "DT_INT32", "tensorShape": {}}}}}, {"name": "StatefulPartitionedCall/neural_network_2/mobile_net_v3_small_2/bottle_neck_22/se_block_22/ExpandDims_1/dim", "op": "Const", "attr": {"value": {"tensor": {"dtype": "DT_INT32", "tensorShape": {}}}, "dtype": {"type": "DT_INT32"}}}, {"name": "StatefulPartitionedCall/neural_network_2/mobile_net_v3_small_2/bottle_neck_25/add/y", "op": "Const", "attr": {"value": {"tensor": {"dtype": "DT_FLOAT", "tensorShape": {}}}, "dtype": {"type": "DT_FLOAT"}}}, {"name": "StatefulPartitionedCall/neural_network_2/mobile_net_v3_small_2/bottle_neck_25/add_1/y", "op": "Const", "attr": {"dtype": {"type": "DT_FLOAT"}, "value": {"tensor": {"dtype": "DT_FLOAT", "tensorShape": {}}}}}, {"name": "StatefulPartitionedCall/neural_network_2/mobile_net_v3_small_2/bottle_neck_25/se_block_25/global_average_pooling2d_27/Mean/reduction_indices", "op": "Const", "attr": {"dtype": {"type": "DT_INT32"}, "value": {"tensor": {"dtype": "DT_INT32", "tensorShape": {"dim": [{"size": "2"}]}}}}}, {"name": "StatefulPartitionedCall/neural_network_2/mobile_net_v3_small_2/bottle_neck_25/se_block_25/dense_86/MatMul/ReadVariableOp", "op": "Const", "attr": {"dtype": {"type": "DT_FLOAT"}, "value": {"tensor": {"dtype": "DT_FLOAT", "tensorShape": {"dim": [{"size": "96"}, {"size": "6"}]}}}}}, {"name": "StatefulPartitionedCall/neural_network_2/mobile_net_v3_small_2/bottle_neck_25/se_block_25/dense_86/BiasAdd/ReadVariableOp", "op": "Const", "attr": {"value": {"tensor": {"dtype": "DT_FLOAT", "tensorShape": {"dim": [{"size": "6"}]}}}, "dtype": {"type": "DT_FLOAT"}}}, {"name": "StatefulPartitionedCall/neural_network_2/mobile_net_v3_small_2/bottle_neck_25/se_block_25/dense_87/MatMul/ReadVariableOp", "op": "Const", "attr": {"dtype": {"type": "DT_FLOAT"}, "value": {"tensor": {"dtype": "DT_FLOAT", "tensorShape": {"dim": [{"size": "6"}, {"size": "96"}]}}}}}, {"name": "StatefulPartitionedCall/neural_network_2/mobile_net_v3_small_2/bottle_neck_25/se_block_25/dense_87/BiasAdd/ReadVariableOp", "op": "Const", "attr": {"dtype": {"type": "DT_FLOAT"}, "value": {"tensor": {"dtype": "DT_FLOAT", "tensorShape": {"dim": [{"size": "96"}]}}}}}, {"name": "StatefulPartitionedCall/neural_network_2/mobile_net_v3_small_2/bottle_neck_25/se_block_25/add/y", "op": "Const", "attr": {"dtype": {"type": "DT_FLOAT"}, "value": {"tensor": {"dtype": "DT_FLOAT", "tensorShape": {}}}}}, {"name": "ConstantFolding/StatefulPartitionedCall/neural_network_2/mobile_net_v3_small_2/bottle_neck_25/se_block_25/truediv_recip", "op": "Const", "attr": {"dtype": {"type": "DT_FLOAT"}, "value": {"tensor": {"dtype": "DT_FLOAT", "tensorShape": {}}}}}, {"name": "StatefulPartitionedCall/neural_network_2/mobile_net_v3_small_2/bottle_neck_25/se_block_25/ExpandDims/dim", "op": "Const", "attr": {"dtype": {"type": "DT_INT32"}, "value": {"tensor": {"dtype": "DT_INT32", "tensorShape": {}}}}}, {"name": "StatefulPartitionedCall/neural_network_2/mobile_net_v3_small_2/bottle_neck_25/se_block_25/ExpandDims_1/dim", "op": "Const", "attr": {"dtype": {"type": "DT_INT32"}, "value": {"tensor": {"dtype": "DT_INT32", "tensorShape": {}}}}}, {"name": "StatefulPartitionedCall/neural_network_2/mobile_net_v3_small_2/bottle_neck_28/add/y", "op": "Const", "attr": {"value": {"tensor": {"dtype": "DT_FLOAT", "tensorShape": {}}}, "dtype": {"type": "DT_FLOAT"}}}, {"name": "StatefulPartitionedCall/neural_network_2/mobile_net_v3_small_2/bottle_neck_28/add_1/y", "op": "Const", "attr": {"dtype": {"type": "DT_FLOAT"}, "value": {"tensor": {"dtype": "DT_FLOAT", "tensorShape": {}}}}}, {"name": "StatefulPartitionedCall/neural_network_2/mobile_net_v3_small_2/bottle_neck_28/se_block_28/global_average_pooling2d_30/Mean/reduction_indices", "op": "Const", "attr": {"dtype": {"type": "DT_INT32"}, "value": {"tensor": {"dtype": "DT_INT32", "tensorShape": {"dim": [{"size": "2"}]}}}}}, {"name": "StatefulPartitionedCall/neural_network_2/mobile_net_v3_small_2/bottle_neck_28/se_block_28/dense_92/MatMul/ReadVariableOp", "op": "Const", "attr": {"value": {"tensor": {"dtype": "DT_FLOAT", "tensorShape": {"dim": [{"size": "120"}, {"size": "7"}]}}}, "dtype": {"type": "DT_FLOAT"}}}, {"name": "StatefulPartitionedCall/neural_network_2/mobile_net_v3_small_2/bottle_neck_28/se_block_28/dense_92/BiasAdd/ReadVariableOp", "op": "Const", "attr": {"dtype": {"type": "DT_FLOAT"}, "value": {"tensor": {"dtype": "DT_FLOAT", "tensorShape": {"dim": [{"size": "7"}]}}}}}, {"name": "StatefulPartitionedCall/neural_network_2/mobile_net_v3_small_2/bottle_neck_28/se_block_28/dense_93/MatMul/ReadVariableOp", "op": "Const", "attr": {"dtype": {"type": "DT_FLOAT"}, "value": {"tensor": {"dtype": "DT_FLOAT", "tensorShape": {"dim": [{"size": "7"}, {"size": "120"}]}}}}}, {"name": "StatefulPartitionedCall/neural_network_2/mobile_net_v3_small_2/bottle_neck_28/se_block_28/dense_93/BiasAdd/ReadVariableOp", "op": "Const", "attr": {"dtype": {"type": "DT_FLOAT"}, "value": {"tensor": {"dtype": "DT_FLOAT", "tensorShape": {"dim": [{"size": "120"}]}}}}}, {"name": "StatefulPartitionedCall/neural_network_2/mobile_net_v3_small_2/bottle_neck_28/se_block_28/add/y", "op": "Const", "attr": {"dtype": {"type": "DT_FLOAT"}, "value": {"tensor": {"dtype": "DT_FLOAT", "tensorShape": {}}}}}, {"name": "ConstantFolding/StatefulPartitionedCall/neural_network_2/mobile_net_v3_small_2/bottle_neck_28/se_block_28/truediv_recip", "op": "Const", "attr": {"value": {"tensor": {"dtype": "DT_FLOAT", "tensorShape": {}}}, "dtype": {"type": "DT_FLOAT"}}}, {"name": "StatefulPartitionedCall/neural_network_2/mobile_net_v3_small_2/bottle_neck_28/se_block_28/ExpandDims/dim", "op": "Const", "attr": {"dtype": {"type": "DT_INT32"}, "value": {"tensor": {"dtype": "DT_INT32", "tensorShape": {}}}}}, {"name": "StatefulPartitionedCall/neural_network_2/mobile_net_v3_small_2/bottle_neck_28/se_block_28/ExpandDims_1/dim", "op": "Const", "attr": {"dtype": {"type": "DT_INT32"}, "value": {"tensor": {"dtype": "DT_INT32", "tensorShape": {}}}}}, {"name": "StatefulPartitionedCall/neural_network_2/mobile_net_v3_small_2/bottle_neck_30/add/y", "op": "Const", "attr": {"dtype": {"type": "DT_FLOAT"}, "value": {"tensor": {"dtype": "DT_FLOAT", "tensorShape": {}}}}}, {"name": "StatefulPartitionedCall/neural_network_2/mobile_net_v3_small_2/bottle_neck_30/add_1/y", "op": "Const", "attr": {"dtype": {"type": "DT_FLOAT"}, "value": {"tensor": {"dtype": "DT_FLOAT", "tensorShape": {}}}}}, {"name": "StatefulPartitionedCall/neural_network_2/mobile_net_v3_small_2/bottle_neck_30/se_block_30/global_average_pooling2d_32/Mean/reduction_indices", "op": "Const", "attr": {"dtype": {"type": "DT_INT32"}, "value": {"tensor": {"dtype": "DT_INT32", "tensorShape": {"dim": [{"size": "2"}]}}}}}, {"name": "StatefulPartitionedCall/neural_network_2/mobile_net_v3_small_2/bottle_neck_30/se_block_30/dense_96/MatMul/ReadVariableOp", "op": "Const", "attr": {"dtype": {"type": "DT_FLOAT"}, "value": {"tensor": {"dtype": "DT_FLOAT", "tensorShape": {"dim": [{"size": "288"}, {"size": "18"}]}}}}}, {"name": "StatefulPartitionedCall/neural_network_2/mobile_net_v3_small_2/bottle_neck_30/se_block_30/dense_96/BiasAdd/ReadVariableOp", "op": "Const", "attr": {"dtype": {"type": "DT_FLOAT"}, "value": {"tensor": {"dtype": "DT_FLOAT", "tensorShape": {"dim": [{"size": "18"}]}}}}}, {"name": "StatefulPartitionedCall/neural_network_2/mobile_net_v3_small_2/bottle_neck_30/se_block_30/dense_97/MatMul/ReadVariableOp", "op": "Const", "attr": {"dtype": {"type": "DT_FLOAT"}, "value": {"tensor": {"dtype": "DT_FLOAT", "tensorShape": {"dim": [{"size": "18"}, {"size": "288"}]}}}}}, {"name": "StatefulPartitionedCall/neural_network_2/mobile_net_v3_small_2/bottle_neck_30/se_block_30/dense_97/BiasAdd/ReadVariableOp", "op": "Const", "attr": {"dtype": {"type": "DT_FLOAT"}, "value": {"tensor": {"dtype": "DT_FLOAT", "tensorShape": {"dim": [{"size": "288"}]}}}}}, {"name": "StatefulPartitionedCall/neural_network_2/mobile_net_v3_small_2/bottle_neck_30/se_block_30/add/y", "op": "Const", "attr": {"dtype": {"type": "DT_FLOAT"}, "value": {"tensor": {"dtype": "DT_FLOAT", "tensorShape": {}}}}}, {"name": "ConstantFolding/StatefulPartitionedCall/neural_network_2/mobile_net_v3_small_2/bottle_neck_30/se_block_30/truediv_recip", "op": "Const", "attr": {"value": {"tensor": {"dtype": "DT_FLOAT", "tensorShape": {}}}, "dtype": {"type": "DT_FLOAT"}}}, {"name": "StatefulPartitionedCall/neural_network_2/mobile_net_v3_small_2/bottle_neck_30/se_block_30/ExpandDims/dim", "op": "Const", "attr": {"dtype": {"type": "DT_INT32"}, "value": {"tensor": {"dtype": "DT_INT32", "tensorShape": {}}}}}, {"name": "StatefulPartitionedCall/neural_network_2/mobile_net_v3_small_2/bottle_neck_30/se_block_30/ExpandDims_1/dim", "op": "Const", "attr": {"dtype": {"type": "DT_INT32"}, "value": {"tensor": {"dtype": "DT_INT32", "tensorShape": {}}}}}, {"name": "StatefulPartitionedCall/neural_network_2/mobile_net_v3_small_2/add_1/y", "op": "Const", "attr": {"dtype": {"type": "DT_FLOAT"}, "value": {"tensor": {"dtype": "DT_FLOAT", "tensorShape": {}}}}}, {"name": "StatefulPartitionedCall/neural_network_2/mobile_net_v3_small_2/conv2d_76/Conv2D/ReadVariableOp", "op": "Const", "attr": {"dtype": {"type": "DT_FLOAT"}, "value": {"tensor": {"dtype": "DT_FLOAT", "tensorShape": {"dim": [{"size": "1"}, {"size": "1"}, {"size": "576"}, {"size": "1280"}]}}}}}, {"name": "StatefulPartitionedCall/neural_network_2/mobile_net_v3_small_2/conv2d_76/BiasAdd/ReadVariableOp", "op": "Const", "attr": {"dtype": {"type": "DT_FLOAT"}, "value": {"tensor": {"dtype": "DT_FLOAT", "tensorShape": {"dim": [{"size": "1280"}]}}}}}, {"name": "StatefulPartitionedCall/neural_network_2/mobile_net_v3_small_2/add_2/y", "op": "Const", "attr": {"value": {"tensor": {"dtype": "DT_FLOAT", "tensorShape": {}}}, "dtype": {"type": "DT_FLOAT"}}}, {"name": "StatefulPartitionedCall/neural_network_2/mobile_net_v3_small_2/conv2d_77/Conv2D/ReadVariableOp", "op": "Const", "attr": {"dtype": {"type": "DT_FLOAT"}, "value": {"tensor": {"dtype": "DT_FLOAT", "tensorShape": {"dim": [{"size": "1"}, {"size": "1"}, {"size": "1280"}, {"size": "1024"}]}}}}}, {"name": "StatefulPartitionedCall/neural_network_2/mobile_net_v3_small_2/conv2d_77/BiasAdd/ReadVariableOp", "op": "Const", "attr": {"dtype": {"type": "DT_FLOAT"}, "value": {"tensor": {"dtype": "DT_FLOAT", "tensorShape": {"dim": [{"size": "1024"}]}}}}}, {"name": "StatefulPartitionedCall/neural_network_2/mobile_net_v3_small_2/global_average_pooling2d_35/Mean/reduction_indices", "op": "Const", "attr": {"value": {"tensor": {"dtype": "DT_INT32", "tensorShape": {"dim": [{"size": "2"}]}}}, "dtype": {"type": "DT_INT32"}}}, {"name": "StatefulPartitionedCall/neural_network_2/res_mlp_2/dense_102/MatMul/ReadVariableOp", "op": "Const", "attr": {"dtype": {"type": "DT_FLOAT"}, "value": {"tensor": {"dtype": "DT_FLOAT", "tensorShape": {"dim": [{"size": "1024"}, {"size": "32"}]}}}}}, {"name": "StatefulPartitionedCall/neural_network_2/res_mlp_2/dense_102/BiasAdd/ReadVariableOp", "op": "Const", "attr": {"dtype": {"type": "DT_FLOAT"}, "value": {"tensor": {"dtype": "DT_FLOAT", "tensorShape": {"dim": [{"size": "32"}]}}}}}, {"name": "StatefulPartitionedCall/neural_network_2/res_mlp_2/batch_normalization_107/batchnorm/mul", "op": "Const", "attr": {"dtype": {"type": "DT_FLOAT"}, "value": {"tensor": {"dtype": "DT_FLOAT", "tensorShape": {"dim": [{"size": "32"}]}}}}}, {"name": "StatefulPartitionedCall/neural_network_2/res_mlp_2/batch_normalization_107/batchnorm/sub", "op": "Const", "attr": {"dtype": {"type": "DT_FLOAT"}, "value": {"tensor": {"dtype": "DT_FLOAT", "tensorShape": {"dim": [{"size": "32"}]}}}}}, {"name": "StatefulPartitionedCall/neural_network_2/res_mlp_2/sequential_2/res_mlp_block_14/dense_109/MatMul/ReadVariableOp", "op": "Const", "attr": {"dtype": {"type": "DT_FLOAT"}, "value": {"tensor": {"dtype": "DT_FLOAT", "tensorShape": {"dim": [{"size": "32"}, {"size": "64"}]}}}}}, {"name": "StatefulPartitionedCall/neural_network_2/res_mlp_2/sequential_2/res_mlp_block_14/dense_109/BiasAdd/ReadVariableOp", "op": "Const", "attr": {"dtype": {"type": "DT_FLOAT"}, "value": {"tensor": {"dtype": "DT_FLOAT", "tensorShape": {"dim": [{"size": "64"}]}}}}}, {"name": "StatefulPartitionedCall/neural_network_2/res_mlp_2/sequential_2/res_mlp_block_14/pow/y", "op": "Const", "attr": {"dtype": {"type": "DT_FLOAT"}, "value": {"tensor": {"dtype": "DT_FLOAT", "tensorShape": {}}}}}, {"name": "StatefulPartitionedCall/neural_network_2/res_mlp_2/sequential_2/res_mlp_block_14/dense_110/MatMul/ReadVariableOp", "op": "Const", "attr": {"dtype": {"type": "DT_FLOAT"}, "value": {"tensor": {"dtype": "DT_FLOAT", "tensorShape": {"dim": [{"size": "64"}, {"size": "64"}]}}}}}, {"name": "StatefulPartitionedCall/neural_network_2/res_mlp_2/sequential_2/res_mlp_block_14/dense_110/BiasAdd/ReadVariableOp", "op": "Const", "attr": {"dtype": {"type": "DT_FLOAT"}, "value": {"tensor": {"dtype": "DT_FLOAT", "tensorShape": {"dim": [{"size": "64"}]}}}}}, {"name": "StatefulPartitionedCall/neural_network_2/res_mlp_2/sequential_2/res_mlp_block_14/pow_1/y", "op": "Const", "attr": {"dtype": {"type": "DT_FLOAT"}, "value": {"tensor": {"dtype": "DT_FLOAT", "tensorShape": {}}}}}, {"name": "StatefulPartitionedCall/neural_network_2/res_mlp_2/sequential_2/res_mlp_block_16/dense_115/MatMul/ReadVariableOp", "op": "Const", "attr": {"dtype": {"type": "DT_FLOAT"}, "value": {"tensor": {"dtype": "DT_FLOAT", "tensorShape": {"dim": [{"size": "64"}, {"size": "128"}]}}}}}, {"name": "StatefulPartitionedCall/neural_network_2/res_mlp_2/sequential_2/res_mlp_block_16/dense_115/BiasAdd/ReadVariableOp", "op": "Const", "attr": {"dtype": {"type": "DT_FLOAT"}, "value": {"tensor": {"dtype": "DT_FLOAT", "tensorShape": {"dim": [{"size": "128"}]}}}}}, {"name": "StatefulPartitionedCall/neural_network_2/res_mlp_2/sequential_2/res_mlp_block_16/pow/y", "op": "Const", "attr": {"dtype": {"type": "DT_FLOAT"}, "value": {"tensor": {"dtype": "DT_FLOAT", "tensorShape": {}}}}}, {"name": "StatefulPartitionedCall/neural_network_2/res_mlp_2/sequential_2/res_mlp_block_16/dense_116/MatMul/ReadVariableOp", "op": "Const", "attr": {"dtype": {"type": "DT_FLOAT"}, "value": {"tensor": {"dtype": "DT_FLOAT", "tensorShape": {"dim": [{"size": "128"}, {"size": "128"}]}}}}}, {"name": "StatefulPartitionedCall/neural_network_2/res_mlp_2/sequential_2/res_mlp_block_16/dense_116/BiasAdd/ReadVariableOp", "op": "Const", "attr": {"dtype": {"type": "DT_FLOAT"}, "value": {"tensor": {"dtype": "DT_FLOAT", "tensorShape": {"dim": [{"size": "128"}]}}}}}, {"name": "StatefulPartitionedCall/neural_network_2/res_mlp_2/sequential_2/res_mlp_block_16/pow_1/y", "op": "Const", "attr": {"dtype": {"type": "DT_FLOAT"}, "value": {"tensor": {"dtype": "DT_FLOAT", "tensorShape": {}}}}}, {"name": "StatefulPartitionedCall/neural_network_2/res_mlp_2/dense_119/MatMul/ReadVariableOp", "op": "Const", "attr": {"dtype": {"type": "DT_FLOAT"}, "value": {"tensor": {"dtype": "DT_FLOAT", "tensorShape": {"dim": [{"size": "128"}, {"size": "6"}]}}}}}, {"name": "StatefulPartitionedCall/neural_network_2/res_mlp_2/dense_119/BiasAdd/ReadVariableOp", "op": "Const", "attr": {"dtype": {"type": "DT_FLOAT"}, "value": {"tensor": {"dtype": "DT_FLOAT", "tensorShape": {"dim": [{"size": "6"}]}}}}}, {"name": "input_1", "op": "Placeholder", "attr": {"dtype": {"type": "DT_FLOAT"}, "shape": {"shape": {"dim": [{"size": "-1"}, {"size": "300"}, {"size": "300"}, {"size": "3"}]}}}}, {"name": "StatefulPartitionedCall/neural_network_2/mobile_net_v3_small_2/conv2d_52/Conv2D_weights", "op": "Const", "attr": {"dtype": {"type": "DT_FLOAT"}, "value": {"tensor": {"dtype": "DT_FLOAT", "tensorShape": {"dim": [{"size": "3"}, {"size": "3"}, {"size": "3"}, {"size": "16"}]}}}}}, {"name": "StatefulPartitionedCall/neural_network_2/mobile_net_v3_small_2/conv2d_52/Conv2D_bn_offset", "op": "Const", "attr": {"value": {"tensor": {"dtype": "DT_FLOAT", "tensorShape": {"dim": [{"size": "16"}]}}}, "dtype": {"type": "DT_FLOAT"}}}, {"name": "StatefulPartitionedCall/neural_network_2/mobile_net_v3_small_2/bottle_neck_22/conv2d_53/Conv2D_weights", "op": "Const", "attr": {"dtype": {"type": "DT_FLOAT"}, "value": {"tensor": {"dtype": "DT_FLOAT", "tensorShape": {"dim": [{"size": "1"}, {"size": "1"}, {"size": "16"}, {"size": "16"}]}}}}}, {"name": "StatefulPartitionedCall/neural_network_2/mobile_net_v3_small_2/bottle_neck_22/conv2d_53/Conv2D_bn_offset", "op": "Const", "attr": {"value": {"tensor": {"dtype": "DT_FLOAT", "tensorShape": {"dim": [{"size": "16"}]}}}, "dtype": {"type": "DT_FLOAT"}}}, {"name": "StatefulPartitionedCall/neural_network_2/mobile_net_v3_small_2/bottle_neck_22/depthwise_conv2d_22/depthwise_weights", "op": "Const", "attr": {"value": {"tensor": {"dtype": "DT_FLOAT", "tensorShape": {"dim": [{"size": "3"}, {"size": "3"}, {"size": "16"}, {"size": "1"}]}}}, "dtype": {"type": "DT_FLOAT"}}}, {"name": "StatefulPartitionedCall/neural_network_2/mobile_net_v3_small_2/bottle_neck_22/depthwise_conv2d_22/depthwise_bn_offset", "op": "Const", "attr": {"dtype": {"type": "DT_FLOAT"}, "value": {"tensor": {"dtype": "DT_FLOAT", "tensorShape": {"dim": [{"size": "16"}]}}}}}, {"name": "StatefulPartitionedCall/neural_network_2/mobile_net_v3_small_2/bottle_neck_22/conv2d_54/Conv2D_weights", "op": "Const", "attr": {"dtype": {"type": "DT_FLOAT"}, "value": {"tensor": {"dtype": "DT_FLOAT", "tensorShape": {"dim": [{"size": "1"}, {"size": "1"}, {"size": "16"}, {"size": "16"}]}}}}}, {"name": "StatefulPartitionedCall/neural_network_2/mobile_net_v3_small_2/bottle_neck_22/conv2d_54/Conv2D_bn_offset", "op": "Const", "attr": {"dtype": {"type": "DT_FLOAT"}, "value": {"tensor": {"dtype": "DT_FLOAT", "tensorShape": {"dim": [{"size": "16"}]}}}}}, {"name": "StatefulPartitionedCall/neural_network_2/mobile_net_v3_small_2/bottle_neck_23/conv2d_55/Conv2D_weights", "op": "Const", "attr": {"dtype": {"type": "DT_FLOAT"}, "value": {"tensor": {"dtype": "DT_FLOAT", "tensorShape": {"dim": [{"size": "1"}, {"size": "1"}, {"size": "16"}, {"size": "72"}]}}}}}, {"name": "StatefulPartitionedCall/neural_network_2/mobile_net_v3_small_2/bottle_neck_23/conv2d_55/Conv2D_bn_offset", "op": "Const", "attr": {"dtype": {"type": "DT_FLOAT"}, "value": {"tensor": {"dtype": "DT_FLOAT", "tensorShape": {"dim": [{"size": "72"}]}}}}}, {"name": "StatefulPartitionedCall/neural_network_2/mobile_net_v3_small_2/bottle_neck_23/depthwise_conv2d_23/depthwise_weights", "op": "Const", "attr": {"dtype": {"type": "DT_FLOAT"}, "value": {"tensor": {"dtype": "DT_FLOAT", "tensorShape": {"dim": [{"size": "3"}, {"size": "3"}, {"size": "72"}, {"size": "1"}]}}}}}, {"name": "StatefulPartitionedCall/neural_network_2/mobile_net_v3_small_2/bottle_neck_23/depthwise_conv2d_23/depthwise_bn_offset", "op": "Const", "attr": {"dtype": {"type": "DT_FLOAT"}, "value": {"tensor": {"dtype": "DT_FLOAT", "tensorShape": {"dim": [{"size": "72"}]}}}}}, {"name": "StatefulPartitionedCall/neural_network_2/mobile_net_v3_small_2/bottle_neck_23/conv2d_56/Conv2D_weights", "op": "Const", "attr": {"dtype": {"type": "DT_FLOAT"}, "value": {"tensor": {"dtype": "DT_FLOAT", "tensorShape": {"dim": [{"size": "1"}, {"size": "1"}, {"size": "72"}, {"size": "24"}]}}}}}, {"name": "StatefulPartitionedCall/neural_network_2/mobile_net_v3_small_2/bottle_neck_23/conv2d_56/Conv2D_bn_offset", "op": "Const", "attr": {"dtype": {"type": "DT_FLOAT"}, "value": {"tensor": {"dtype": "DT_FLOAT", "tensorShape": {"dim": [{"size": "24"}]}}}}}, {"name": "StatefulPartitionedCall/neural_network_2/mobile_net_v3_small_2/bottle_neck_24/conv2d_57/Conv2D_weights", "op": "Const", "attr": {"dtype": {"type": "DT_FLOAT"}, "value": {"tensor": {"dtype": "DT_FLOAT", "tensorShape": {"dim": [{"size": "1"}, {"size": "1"}, {"size": "24"}, {"size": "88"}]}}}}}, {"name": "StatefulPartitionedCall/neural_network_2/mobile_net_v3_small_2/bottle_neck_24/conv2d_57/Conv2D_bn_offset", "op": "Const", "attr": {"dtype": {"type": "DT_FLOAT"}, "value": {"tensor": {"dtype": "DT_FLOAT", "tensorShape": {"dim": [{"size": "88"}]}}}}}, {"name": "StatefulPartitionedCall/neural_network_2/mobile_net_v3_small_2/bottle_neck_24/depthwise_conv2d_24/depthwise_weights", "op": "Const", "attr": {"dtype": {"type": "DT_FLOAT"}, "value": {"tensor": {"dtype": "DT_FLOAT", "tensorShape": {"dim": [{"size": "3"}, {"size": "3"}, {"size": "88"}, {"size": "1"}]}}}}}, {"name": "StatefulPartitionedCall/neural_network_2/mobile_net_v3_small_2/bottle_neck_24/depthwise_conv2d_24/depthwise_bn_offset", "op": "Const", "attr": {"value": {"tensor": {"dtype": "DT_FLOAT", "tensorShape": {"dim": [{"size": "88"}]}}}, "dtype": {"type": "DT_FLOAT"}}}, {"name": "StatefulPartitionedCall/neural_network_2/mobile_net_v3_small_2/bottle_neck_24/conv2d_58/Conv2D_weights", "op": "Const", "attr": {"value": {"tensor": {"dtype": "DT_FLOAT", "tensorShape": {"dim": [{"size": "1"}, {"size": "1"}, {"size": "88"}, {"size": "24"}]}}}, "dtype": {"type": "DT_FLOAT"}}}, {"name": "StatefulPartitionedCall/neural_network_2/mobile_net_v3_small_2/bottle_neck_24/conv2d_58/Conv2D_bn_offset", "op": "Const", "attr": {"dtype": {"type": "DT_FLOAT"}, "value": {"tensor": {"dtype": "DT_FLOAT", "tensorShape": {"dim": [{"size": "24"}]}}}}}, {"name": "StatefulPartitionedCall/neural_network_2/mobile_net_v3_small_2/bottle_neck_25/conv2d_59/Conv2D_weights", "op": "Const", "attr": {"dtype": {"type": "DT_FLOAT"}, "value": {"tensor": {"dtype": "DT_FLOAT", "tensorShape": {"dim": [{"size": "1"}, {"size": "1"}, {"size": "24"}, {"size": "96"}]}}}}}, {"name": "StatefulPartitionedCall/neural_network_2/mobile_net_v3_small_2/bottle_neck_25/conv2d_59/Conv2D_bn_offset", "op": "Const", "attr": {"value": {"tensor": {"dtype": "DT_FLOAT", "tensorShape": {"dim": [{"size": "96"}]}}}, "dtype": {"type": "DT_FLOAT"}}}, {"name": "StatefulPartitionedCall/neural_network_2/mobile_net_v3_small_2/bottle_neck_25/depthwise_conv2d_25/depthwise_weights", "op": "Const", "attr": {"dtype": {"type": "DT_FLOAT"}, "value": {"tensor": {"dtype": "DT_FLOAT", "tensorShape": {"dim": [{"size": "5"}, {"size": "5"}, {"size": "96"}, {"size": "1"}]}}}}}, {"name": "StatefulPartitionedCall/neural_network_2/mobile_net_v3_small_2/bottle_neck_25/depthwise_conv2d_25/depthwise_bn_offset", "op": "Const", "attr": {"dtype": {"type": "DT_FLOAT"}, "value": {"tensor": {"dtype": "DT_FLOAT", "tensorShape": {"dim": [{"size": "96"}]}}}}}, {"name": "StatefulPartitionedCall/neural_network_2/mobile_net_v3_small_2/bottle_neck_25/conv2d_60/Conv2D_weights", "op": "Const", "attr": {"dtype": {"type": "DT_FLOAT"}, "value": {"tensor": {"dtype": "DT_FLOAT", "tensorShape": {"dim": [{"size": "1"}, {"size": "1"}, {"size": "96"}, {"size": "40"}]}}}}}, {"name": "StatefulPartitionedCall/neural_network_2/mobile_net_v3_small_2/bottle_neck_25/conv2d_60/Conv2D_bn_offset", "op": "Const", "attr": {"dtype": {"type": "DT_FLOAT"}, "value": {"tensor": {"dtype": "DT_FLOAT", "tensorShape": {"dim": [{"size": "40"}]}}}}}, {"name": "StatefulPartitionedCall/neural_network_2/mobile_net_v3_small_2/bottle_neck_26/conv2d_61/Conv2D_weights", "op": "Const", "attr": {"value": {"tensor": {"dtype": "DT_FLOAT", "tensorShape": {"dim": [{"size": "1"}, {"size": "1"}, {"size": "40"}, {"size": "240"}]}}}, "dtype": {"type": "DT_FLOAT"}}}, {"name": "StatefulPartitionedCall/neural_network_2/mobile_net_v3_small_2/bottle_neck_26/conv2d_61/Conv2D_bn_offset", "op": "Const", "attr": {"value": {"tensor": {"dtype": "DT_FLOAT", "tensorShape": {"dim": [{"size": "240"}]}}}, "dtype": {"type": "DT_FLOAT"}}}, {"name": "StatefulPartitionedCall/neural_network_2/mobile_net_v3_small_2/bottle_neck_26/depthwise_conv2d_26/depthwise_weights", "op": "Const", "attr": {"dtype": {"type": "DT_FLOAT"}, "value": {"tensor": {"dtype": "DT_FLOAT", "tensorShape": {"dim": [{"size": "5"}, {"size": "5"}, {"size": "240"}, {"size": "1"}]}}}}}, {"name": "StatefulPartitionedCall/neural_network_2/mobile_net_v3_small_2/bottle_neck_26/depthwise_conv2d_26/depthwise_bn_offset", "op": "Const", "attr": {"dtype": {"type": "DT_FLOAT"}, "value": {"tensor": {"dtype": "DT_FLOAT", "tensorShape": {"dim": [{"size": "240"}]}}}}}, {"name": "StatefulPartitionedCall/neural_network_2/mobile_net_v3_small_2/bottle_neck_26/conv2d_62/Conv2D_weights", "op": "Const", "attr": {"dtype": {"type": "DT_FLOAT"}, "value": {"tensor": {"dtype": "DT_FLOAT", "tensorShape": {"dim": [{"size": "1"}, {"size": "1"}, {"size": "240"}, {"size": "40"}]}}}}}, {"name": "StatefulPartitionedCall/neural_network_2/mobile_net_v3_small_2/bottle_neck_26/conv2d_62/Conv2D_bn_offset", "op": "Const", "attr": {"dtype": {"type": "DT_FLOAT"}, "value": {"tensor": {"dtype": "DT_FLOAT", "tensorShape": {"dim": [{"size": "40"}]}}}}}, {"name": "StatefulPartitionedCall/neural_network_2/mobile_net_v3_small_2/bottle_neck_27/conv2d_63/Conv2D_weights", "op": "Const", "attr": {"value": {"tensor": {"dtype": "DT_FLOAT", "tensorShape": {"dim": [{"size": "1"}, {"size": "1"}, {"size": "40"}, {"size": "240"}]}}}, "dtype": {"type": "DT_FLOAT"}}}, {"name": "StatefulPartitionedCall/neural_network_2/mobile_net_v3_small_2/bottle_neck_27/conv2d_63/Conv2D_bn_offset", "op": "Const", "attr": {"value": {"tensor": {"dtype": "DT_FLOAT", "tensorShape": {"dim": [{"size": "240"}]}}}, "dtype": {"type": "DT_FLOAT"}}}, {"name": "StatefulPartitionedCall/neural_network_2/mobile_net_v3_small_2/bottle_neck_27/depthwise_conv2d_27/depthwise_weights", "op": "Const", "attr": {"value": {"tensor": {"dtype": "DT_FLOAT", "tensorShape": {"dim": [{"size": "5"}, {"size": "5"}, {"size": "240"}, {"size": "1"}]}}}, "dtype": {"type": "DT_FLOAT"}}}, {"name": "StatefulPartitionedCall/neural_network_2/mobile_net_v3_small_2/bottle_neck_27/depthwise_conv2d_27/depthwise_bn_offset", "op": "Const", "attr": {"dtype": {"type": "DT_FLOAT"}, "value": {"tensor": {"dtype": "DT_FLOAT", "tensorShape": {"dim": [{"size": "240"}]}}}}}, {"name": "StatefulPartitionedCall/neural_network_2/mobile_net_v3_small_2/bottle_neck_27/conv2d_64/Conv2D_weights", "op": "Const", "attr": {"dtype": {"type": "DT_FLOAT"}, "value": {"tensor": {"dtype": "DT_FLOAT", "tensorShape": {"dim": [{"size": "1"}, {"size": "1"}, {"size": "240"}, {"size": "40"}]}}}}}, {"name": "StatefulPartitionedCall/neural_network_2/mobile_net_v3_small_2/bottle_neck_27/conv2d_64/Conv2D_bn_offset", "op": "Const", "attr": {"dtype": {"type": "DT_FLOAT"}, "value": {"tensor": {"dtype": "DT_FLOAT", "tensorShape": {"dim": [{"size": "40"}]}}}}}, {"name": "StatefulPartitionedCall/neural_network_2/mobile_net_v3_small_2/bottle_neck_28/conv2d_65/Conv2D_weights", "op": "Const", "attr": {"dtype": {"type": "DT_FLOAT"}, "value": {"tensor": {"dtype": "DT_FLOAT", "tensorShape": {"dim": [{"size": "1"}, {"size": "1"}, {"size": "40"}, {"size": "120"}]}}}}}, {"name": "StatefulPartitionedCall/neural_network_2/mobile_net_v3_small_2/bottle_neck_28/conv2d_65/Conv2D_bn_offset", "op": "Const", "attr": {"dtype": {"type": "DT_FLOAT"}, "value": {"tensor": {"dtype": "DT_FLOAT", "tensorShape": {"dim": [{"size": "120"}]}}}}}, {"name": "StatefulPartitionedCall/neural_network_2/mobile_net_v3_small_2/bottle_neck_28/depthwise_conv2d_28/depthwise_weights", "op": "Const", "attr": {"value": {"tensor": {"dtype": "DT_FLOAT", "tensorShape": {"dim": [{"size": "5"}, {"size": "5"}, {"size": "120"}, {"size": "1"}]}}}, "dtype": {"type": "DT_FLOAT"}}}, {"name": "StatefulPartitionedCall/neural_network_2/mobile_net_v3_small_2/bottle_neck_28/depthwise_conv2d_28/depthwise_bn_offset", "op": "Const", "attr": {"dtype": {"type": "DT_FLOAT"}, "value": {"tensor": {"dtype": "DT_FLOAT", "tensorShape": {"dim": [{"size": "120"}]}}}}}, {"name": "StatefulPartitionedCall/neural_network_2/mobile_net_v3_small_2/bottle_neck_28/conv2d_66/Conv2D_weights", "op": "Const", "attr": {"value": {"tensor": {"dtype": "DT_FLOAT", "tensorShape": {"dim": [{"size": "1"}, {"size": "1"}, {"size": "120"}, {"size": "48"}]}}}, "dtype": {"type": "DT_FLOAT"}}}, {"name": "StatefulPartitionedCall/neural_network_2/mobile_net_v3_small_2/bottle_neck_28/conv2d_66/Conv2D_bn_offset", "op": "Const", "attr": {"dtype": {"type": "DT_FLOAT"}, "value": {"tensor": {"dtype": "DT_FLOAT", "tensorShape": {"dim": [{"size": "48"}]}}}}}, {"name": "StatefulPartitionedCall/neural_network_2/mobile_net_v3_small_2/bottle_neck_29/conv2d_67/Conv2D_weights", "op": "Const", "attr": {"dtype": {"type": "DT_FLOAT"}, "value": {"tensor": {"dtype": "DT_FLOAT", "tensorShape": {"dim": [{"size": "1"}, {"size": "1"}, {"size": "48"}, {"size": "144"}]}}}}}, {"name": "StatefulPartitionedCall/neural_network_2/mobile_net_v3_small_2/bottle_neck_29/conv2d_67/Conv2D_bn_offset", "op": "Const", "attr": {"value": {"tensor": {"dtype": "DT_FLOAT", "tensorShape": {"dim": [{"size": "144"}]}}}, "dtype": {"type": "DT_FLOAT"}}}, {"name": "StatefulPartitionedCall/neural_network_2/mobile_net_v3_small_2/bottle_neck_29/depthwise_conv2d_29/depthwise_weights", "op": "Const", "attr": {"dtype": {"type": "DT_FLOAT"}, "value": {"tensor": {"dtype": "DT_FLOAT", "tensorShape": {"dim": [{"size": "5"}, {"size": "5"}, {"size": "144"}, {"size": "1"}]}}}}}, {"name": "StatefulPartitionedCall/neural_network_2/mobile_net_v3_small_2/bottle_neck_29/depthwise_conv2d_29/depthwise_bn_offset", "op": "Const", "attr": {"dtype": {"type": "DT_FLOAT"}, "value": {"tensor": {"dtype": "DT_FLOAT", "tensorShape": {"dim": [{"size": "144"}]}}}}}, {"name": "StatefulPartitionedCall/neural_network_2/mobile_net_v3_small_2/bottle_neck_29/conv2d_68/Conv2D_weights", "op": "Const", "attr": {"dtype": {"type": "DT_FLOAT"}, "value": {"tensor": {"dtype": "DT_FLOAT", "tensorShape": {"dim": [{"size": "1"}, {"size": "1"}, {"size": "144"}, {"size": "48"}]}}}}}, {"name": "StatefulPartitionedCall/neural_network_2/mobile_net_v3_small_2/bottle_neck_29/conv2d_68/Conv2D_bn_offset", "op": "Const", "attr": {"dtype": {"type": "DT_FLOAT"}, "value": {"tensor": {"dtype": "DT_FLOAT", "tensorShape": {"dim": [{"size": "48"}]}}}}}, {"name": "StatefulPartitionedCall/neural_network_2/mobile_net_v3_small_2/bottle_neck_30/conv2d_69/Conv2D_weights", "op": "Const", "attr": {"dtype": {"type": "DT_FLOAT"}, "value": {"tensor": {"dtype": "DT_FLOAT", "tensorShape": {"dim": [{"size": "1"}, {"size": "1"}, {"size": "48"}, {"size": "288"}]}}}}}, {"name": "StatefulPartitionedCall/neural_network_2/mobile_net_v3_small_2/bottle_neck_30/conv2d_69/Conv2D_bn_offset", "op": "Const", "attr": {"dtype": {"type": "DT_FLOAT"}, "value": {"tensor": {"dtype": "DT_FLOAT", "tensorShape": {"dim": [{"size": "288"}]}}}}}, {"name": "StatefulPartitionedCall/neural_network_2/mobile_net_v3_small_2/bottle_neck_30/depthwise_conv2d_30/depthwise_weights", "op": "Const", "attr": {"dtype": {"type": "DT_FLOAT"}, "value": {"tensor": {"dtype": "DT_FLOAT", "tensorShape": {"dim": [{"size": "5"}, {"size": "5"}, {"size": "288"}, {"size": "1"}]}}}}}, {"name": "StatefulPartitionedCall/neural_network_2/mobile_net_v3_small_2/bottle_neck_30/depthwise_conv2d_30/depthwise_bn_offset", "op": "Const", "attr": {"dtype": {"type": "DT_FLOAT"}, "value": {"tensor": {"dtype": "DT_FLOAT", "tensorShape": {"dim": [{"size": "288"}]}}}}}, {"name": "StatefulPartitionedCall/neural_network_2/mobile_net_v3_small_2/bottle_neck_30/conv2d_70/Conv2D_weights", "op": "Const", "attr": {"value": {"tensor": {"dtype": "DT_FLOAT", "tensorShape": {"dim": [{"size": "1"}, {"size": "1"}, {"size": "288"}, {"size": "96"}]}}}, "dtype": {"type": "DT_FLOAT"}}}, {"name": "StatefulPartitionedCall/neural_network_2/mobile_net_v3_small_2/bottle_neck_30/conv2d_70/Conv2D_bn_offset", "op": "Const", "attr": {"dtype": {"type": "DT_FLOAT"}, "value": {"tensor": {"dtype": "DT_FLOAT", "tensorShape": {"dim": [{"size": "96"}]}}}}}, {"name": "StatefulPartitionedCall/neural_network_2/mobile_net_v3_small_2/bottle_neck_31/conv2d_71/Conv2D_weights", "op": "Const", "attr": {"dtype": {"type": "DT_FLOAT"}, "value": {"tensor": {"dtype": "DT_FLOAT", "tensorShape": {"dim": [{"size": "1"}, {"size": "1"}, {"size": "96"}, {"size": "576"}]}}}}}, {"name": "StatefulPartitionedCall/neural_network_2/mobile_net_v3_small_2/bottle_neck_31/conv2d_71/Conv2D_bn_offset", "op": "Const", "attr": {"value": {"tensor": {"dtype": "DT_FLOAT", "tensorShape": {"dim": [{"size": "576"}]}}}, "dtype": {"type": "DT_FLOAT"}}}, {"name": "StatefulPartitionedCall/neural_network_2/mobile_net_v3_small_2/bottle_neck_31/depthwise_conv2d_31/depthwise_weights", "op": "Const", "attr": {"dtype": {"type": "DT_FLOAT"}, "value": {"tensor": {"dtype": "DT_FLOAT", "tensorShape": {"dim": [{"size": "5"}, {"size": "5"}, {"size": "576"}, {"size": "1"}]}}}}}, {"name": "StatefulPartitionedCall/neural_network_2/mobile_net_v3_small_2/bottle_neck_31/depthwise_conv2d_31/depthwise_bn_offset", "op": "Const", "attr": {"dtype": {"type": "DT_FLOAT"}, "value": {"tensor": {"dtype": "DT_FLOAT", "tensorShape": {"dim": [{"size": "576"}]}}}}}, {"name": "StatefulPartitionedCall/neural_network_2/mobile_net_v3_small_2/bottle_neck_31/conv2d_72/Conv2D_weights", "op": "Const", "attr": {"dtype": {"type": "DT_FLOAT"}, "value": {"tensor": {"dtype": "DT_FLOAT", "tensorShape": {"dim": [{"size": "1"}, {"size": "1"}, {"size": "576"}, {"size": "96"}]}}}}}, {"name": "StatefulPartitionedCall/neural_network_2/mobile_net_v3_small_2/bottle_neck_31/conv2d_72/Conv2D_bn_offset", "op": "Const", "attr": {"dtype": {"type": "DT_FLOAT"}, "value": {"tensor": {"dtype": "DT_FLOAT", "tensorShape": {"dim": [{"size": "96"}]}}}}}, {"name": "StatefulPartitionedCall/neural_network_2/mobile_net_v3_small_2/bottle_neck_32/conv2d_73/Conv2D_weights", "op": "Const", "attr": {"value": {"tensor": {"dtype": "DT_FLOAT", "tensorShape": {"dim": [{"size": "1"}, {"size": "1"}, {"size": "96"}, {"size": "576"}]}}}, "dtype": {"type": "DT_FLOAT"}}}, {"name": "StatefulPartitionedCall/neural_network_2/mobile_net_v3_small_2/bottle_neck_32/conv2d_73/Conv2D_bn_offset", "op": "Const", "attr": {"dtype": {"type": "DT_FLOAT"}, "value": {"tensor": {"dtype": "DT_FLOAT", "tensorShape": {"dim": [{"size": "576"}]}}}}}, {"name": "StatefulPartitionedCall/neural_network_2/mobile_net_v3_small_2/bottle_neck_32/depthwise_conv2d_32/depthwise_weights", "op": "Const", "attr": {"dtype": {"type": "DT_FLOAT"}, "value": {"tensor": {"dtype": "DT_FLOAT", "tensorShape": {"dim": [{"size": "5"}, {"size": "5"}, {"size": "576"}, {"size": "1"}]}}}}}, {"name": "StatefulPartitionedCall/neural_network_2/mobile_net_v3_small_2/bottle_neck_32/depthwise_conv2d_32/depthwise_bn_offset", "op": "Const", "attr": {"value": {"tensor": {"dtype": "DT_FLOAT", "tensorShape": {"dim": [{"size": "576"}]}}}, "dtype": {"type": "DT_FLOAT"}}}, {"name": "StatefulPartitionedCall/neural_network_2/mobile_net_v3_small_2/bottle_neck_32/conv2d_74/Conv2D_weights", "op": "Const", "attr": {"value": {"tensor": {"dtype": "DT_FLOAT", "tensorShape": {"dim": [{"size": "1"}, {"size": "1"}, {"size": "576"}, {"size": "96"}]}}}, "dtype": {"type": "DT_FLOAT"}}}, {"name": "StatefulPartitionedCall/neural_network_2/mobile_net_v3_small_2/bottle_neck_32/conv2d_74/Conv2D_bn_offset", "op": "Const", "attr": {"value": {"tensor": {"dtype": "DT_FLOAT", "tensorShape": {"dim": [{"size": "96"}]}}}, "dtype": {"type": "DT_FLOAT"}}}, {"name": "StatefulPartitionedCall/neural_network_2/mobile_net_v3_small_2/conv2d_75/Conv2D_weights", "op": "Const", "attr": {"dtype": {"type": "DT_FLOAT"}, "value": {"tensor": {"dtype": "DT_FLOAT", "tensorShape": {"dim": [{"size": "1"}, {"size": "1"}, {"size": "96"}, {"size": "576"}]}}}}}, {"name": "StatefulPartitionedCall/neural_network_2/mobile_net_v3_small_2/conv2d_75/Conv2D_bn_offset", "op": "Const", "attr": {"value": {"tensor": {"dtype": "DT_FLOAT", "tensorShape": {"dim": [{"size": "576"}]}}}, "dtype": {"type": "DT_FLOAT"}}}, {"name": "StatefulPartitionedCall/neural_network_2/mobile_net_v3_small_2/batch_normalization_72/FusedBatchNormV3", "op": "_FusedConv2D", "input": ["input_1", "StatefulPartitionedCall/neural_network_2/mobile_net_v3_small_2/conv2d_52/Conv2D_weights", "StatefulPartitionedCall/neural_network_2/mobile_net_v3_small_2/conv2d_52/Conv2D_bn_offset"], "device": "/device:CPU:0", "attr": {"dilations": {"list": {"i": ["1", "1", "1", "1"]}}, "T": {"type": "DT_FLOAT"}, "fused_ops": {"list": {"s": ["Qmlhc0FkZA=="]}}, "num_args": {"i": "1"}, "strides": {"list": {"i": ["1", "2", "2", "1"]}}, "use_cudnn_on_gpu": {"b": true}, "epsilon": {"f": 0.0}, "data_format": {"s": "TkhXQw=="}, "padding": {"s": "U0FNRQ=="}, "explicit_paddings": {"list": {}}}}, {"name": "StatefulPartitionedCall/neural_network_2/mobile_net_v3_small_2/truediv", "op": "Mul", "input": ["ConstantFolding/StatefulPartitionedCall/neural_network_2/mobile_net_v3_small_2/truediv_recip", "StatefulPartitionedCall/neural_network_2/mobile_net_v3_small_2/batch_normalization_72/FusedBatchNormV3"], "attr": {"_grappler_ArithmeticOptimizer_MinimizeBroadcasts": {"b": true}, "T": {"type": "DT_FLOAT"}}}, {"name": "StatefulPartitionedCall/neural_network_2/mobile_net_v3_small_2/add", "op": "AddV2", "input": ["StatefulPartitionedCall/neural_network_2/mobile_net_v3_small_2/batch_normalization_72/FusedBatchNormV3", "StatefulPartitionedCall/neural_network_2/mobile_net_v3_small_2/add/y"], "attr": {"T": {"type": "DT_FLOAT"}}}, {"name": "StatefulPartitionedCall/neural_network_2/mobile_net_v3_small_2/Relu6", "op": "Relu6", "input": ["StatefulPartitionedCall/neural_network_2/mobile_net_v3_small_2/add"], "attr": {"T": {"type": "DT_FLOAT"}}}, {"name": "StatefulPartitionedCall/neural_network_2/mobile_net_v3_small_2/mul", "op": "Mul", "input": ["StatefulPartitionedCall/neural_network_2/mobile_net_v3_small_2/truediv", "StatefulPartitionedCall/neural_network_2/mobile_net_v3_small_2/Relu6"], "attr": {"_grappler_ArithmeticOptimizer_MinimizeBroadcasts": {"b": true}, "T": {"type": "DT_FLOAT"}}}, {"name": "StatefulPartitionedCall/neural_network_2/mobile_net_v3_small_2/bottle_neck_22/Relu6", "op": "_FusedConv2D", "input": ["StatefulPartitionedCall/neural_network_2/mobile_net_v3_small_2/mul", "StatefulPartitionedCall/neural_network_2/mobile_net_v3_small_2/bottle_neck_22/conv2d_53/Conv2D_weights", "StatefulPartitionedCall/neural_network_2/mobile_net_v3_small_2/bottle_neck_22/conv2d_53/Conv2D_bn_offset"], "device": "/device:CPU:0", "attr": {"explicit_paddings": {"list": {}}, "T": {"type": "DT_FLOAT"}, "strides": {"list": {"i": ["1", "1", "1", "1"]}}, "dilations": {"list": {"i": ["1", "1", "1", "1"]}}, "num_args": {"i": "1"}, "fused_ops": {"list": {"s": ["Qmlhc0FkZA==", "UmVsdTY="]}}, "use_cudnn_on_gpu": {"b": true}, "data_format": {"s": "TkhXQw=="}, "padding": {"s": "U0FNRQ=="}, "epsilon": {"f": 0.0}}}, {"name": "StatefulPartitionedCall/neural_network_2/mobile_net_v3_small_2/bottle_neck_22/depthwise_conv2d_22/depthwise", "op": "FusedDepthwiseConv2dNative", "input": ["StatefulPartitionedCall/neural_network_2/mobile_net_v3_small_2/bottle_neck_22/Relu6", "StatefulPartitionedCall/neural_network_2/mobile_net_v3_small_2/bottle_neck_22/depthwise_conv2d_22/depthwise_weights", "StatefulPartitionedCall/neural_network_2/mobile_net_v3_small_2/bottle_neck_22/depthwise_conv2d_22/depthwise_bn_offset"], "attr": {"data_format": {"s": "TkhXQw=="}, "strides": {"list": {"i": ["1", "2", "2", "1"]}}, "padding": {"s": "U0FNRQ=="}, "T": {"type": "DT_FLOAT"}, "explicit_paddings": {"list": {}}, "dilations": {"list": {"i": ["1", "1", "1", "1"]}}, "fused_ops": {"list": {"s": ["Qmlhc0FkZA==", "UmVsdTY="]}}, "num_args": {"i": "1"}}}, {"name": "StatefulPartitionedCall/neural_network_2/mobile_net_v3_small_2/bottle_neck_22/se_block_22/global_average_pooling2d_24/Mean", "op": "Mean", "input": ["StatefulPartitionedCall/neural_network_2/mobile_net_v3_small_2/bottle_neck_22/depthwise_conv2d_22/depthwise", "StatefulPartitionedCall/neural_network_2/mobile_net_v3_small_2/bottle_neck_22/se_block_22/global_average_pooling2d_24/Mean/reduction_indices"], "attr": {"Tidx": {"type": "DT_INT32"}, "keep_dims": {"b": false}, "T": {"type": "DT_FLOAT"}}}, {"name": "StatefulPartitionedCall/neural_network_2/mobile_net_v3_small_2/bottle_neck_22/se_block_22/activation_44/Relu", "op": "_FusedMatMul", "input": ["StatefulPartitionedCall/neural_network_2/mobile_net_v3_small_2/bottle_neck_22/se_block_22/global_average_pooling2d_24/Mean", "StatefulPartitionedCall/neural_network_2/mobile_net_v3_small_2/bottle_neck_22/se_block_22/dense_80/MatMul/ReadVariableOp", "StatefulPartitionedCall/neural_network_2/mobile_net_v3_small_2/bottle_neck_22/se_block_22/dense_80/BiasAdd/ReadVariableOp"], "device": "/device:CPU:0", "attr": {"epsilon": {"f": 0.0}, "transpose_b": {"b": false}, "transpose_a": {"b": false}, "T": {"type": "DT_FLOAT"}, "fused_ops": {"list": {"s": ["Qmlhc0FkZA==", "UmVsdQ=="]}}, "num_args": {"i": "1"}}}, {"name": "StatefulPartitionedCall/neural_network_2/mobile_net_v3_small_2/bottle_neck_22/se_block_22/dense_81/BiasAdd", "op": "_FusedMatMul", "input": ["StatefulPartitionedCall/neural_network_2/mobile_net_v3_small_2/bottle_neck_22/se_block_22/activation_44/Relu", "StatefulPartitionedCall/neural_network_2/mobile_net_v3_small_2/bottle_neck_22/se_block_22/dense_81/MatMul/ReadVariableOp", "StatefulPartitionedCall/neural_network_2/mobile_net_v3_small_2/bottle_neck_22/se_block_22/dense_81/BiasAdd/ReadVariableOp"], "device": "/device:CPU:0", "attr": {"epsilon": {"f": 0.0}, "transpose_b": {"b": false}, "fused_ops": {"list": {"s": ["Qmlhc0FkZA=="]}}, "transpose_a": {"b": false}, "num_args": {"i": "1"}, "T": {"type": "DT_FLOAT"}}}, {"name": "StatefulPartitionedCall/neural_network_2/mobile_net_v3_small_2/bottle_neck_22/se_block_22/add", "op": "AddV2", "input": ["StatefulPartitionedCall/neural_network_2/mobile_net_v3_small_2/bottle_neck_22/se_block_22/dense_81/BiasAdd", "StatefulPartitionedCall/neural_network_2/mobile_net_v3_small_2/bottle_neck_22/se_block_22/add/y"], "attr": {"T": {"type": "DT_FLOAT"}}}, {"name": "StatefulPartitionedCall/neural_network_2/mobile_net_v3_small_2/bottle_neck_22/se_block_22/Relu6", "op": "Relu6", "input": ["StatefulPartitionedCall/neural_network_2/mobile_net_v3_small_2/bottle_neck_22/se_block_22/add"], "attr": {"T": {"type": "DT_FLOAT"}}}, {"name": "StatefulPartitionedCall/neural_network_2/mobile_net_v3_small_2/bottle_neck_22/se_block_22/truediv", "op": "Mul", "input": ["StatefulPartitionedCall/neural_network_2/mobile_net_v3_small_2/bottle_neck_22/se_block_22/Relu6", "ConstantFolding/StatefulPartitionedCall/neural_network_2/mobile_net_v3_small_2/bottle_neck_22/se_block_22/truediv_recip"], "attr": {"T": {"type": "DT_FLOAT"}}}, {"name": "StatefulPartitionedCall/neural_network_2/mobile_net_v3_small_2/bottle_neck_22/se_block_22/ExpandDims", "op": "ExpandDims", "input": ["StatefulPartitionedCall/neural_network_2/mobile_net_v3_small_2/bottle_neck_22/se_block_22/truediv", "StatefulPartitionedCall/neural_network_2/mobile_net_v3_small_2/bottle_neck_22/se_block_22/ExpandDims/dim"], "attr": {"Tdim": {"type": "DT_INT32"}, "T": {"type": "DT_FLOAT"}}}, {"name": "StatefulPartitionedCall/neural_network_2/mobile_net_v3_small_2/bottle_neck_22/se_block_22/ExpandDims_1", "op": "ExpandDims", "input": ["StatefulPartitionedCall/neural_network_2/mobile_net_v3_small_2/bottle_neck_22/se_block_22/ExpandDims", "StatefulPartitionedCall/neural_network_2/mobile_net_v3_small_2/bottle_neck_22/se_block_22/ExpandDims_1/dim"], "attr": {"T": {"type": "DT_FLOAT"}, "Tdim": {"type": "DT_INT32"}}}, {"name": "StatefulPartitionedCall/neural_network_2/mobile_net_v3_small_2/bottle_neck_22/se_block_22/mul", "op": "Mul", "input": ["StatefulPartitionedCall/neural_network_2/mobile_net_v3_small_2/bottle_neck_22/depthwise_conv2d_22/depthwise", "StatefulPartitionedCall/neural_network_2/mobile_net_v3_small_2/bottle_neck_22/se_block_22/ExpandDims_1"], "attr": {"T": {"type": "DT_FLOAT"}}}, {"name": "StatefulPartitionedCall/neural_network_2/mobile_net_v3_small_2/bottle_neck_22/batch_normalization_75/FusedBatchNormV3", "op": "_FusedConv2D", "input": ["StatefulPartitionedCall/neural_network_2/mobile_net_v3_small_2/bottle_neck_22/se_block_22/mul", "StatefulPartitionedCall/neural_network_2/mobile_net_v3_small_2/bottle_neck_22/conv2d_54/Conv2D_weights", "StatefulPartitionedCall/neural_network_2/mobile_net_v3_small_2/bottle_neck_22/conv2d_54/Conv2D_bn_offset"], "device": "/device:CPU:0", "attr": {"explicit_paddings": {"list": {}}, "dilations": {"list": {"i": ["1", "1", "1", "1"]}}, "fused_ops": {"list": {"s": ["Qmlhc0FkZA=="]}}, "T": {"type": "DT_FLOAT"}, "num_args": {"i": "1"}, "data_format": {"s": "TkhXQw=="}, "padding": {"s": "U0FNRQ=="}, "epsilon": {"f": 0.0}, "strides": {"list": {"i": ["1", "1", "1", "1"]}}, "use_cudnn_on_gpu": {"b": true}}}, {"name": "StatefulPartitionedCall/neural_network_2/mobile_net_v3_small_2/bottle_neck_23/Relu6", "op": "_FusedConv2D", "input": ["StatefulPartitionedCall/neural_network_2/mobile_net_v3_small_2/bottle_neck_22/batch_normalization_75/FusedBatchNormV3", "StatefulPartitionedCall/neural_network_2/mobile_net_v3_small_2/bottle_neck_23/conv2d_55/Conv2D_weights", "StatefulPartitionedCall/neural_network_2/mobile_net_v3_small_2/bottle_neck_23/conv2d_55/Conv2D_bn_offset"], "device": "/device:CPU:0", "attr": {"fused_ops": {"list": {"s": ["Qmlhc0FkZA==", "UmVsdTY="]}}, "use_cudnn_on_gpu": {"b": true}, "strides": {"list": {"i": ["1", "1", "1", "1"]}}, "epsilon": {"f": 0.0}, "explicit_paddings": {"list": {}}, "dilations": {"list": {"i": ["1", "1", "1", "1"]}}, "num_args": {"i": "1"}, "padding": {"s": "U0FNRQ=="}, "T": {"type": "DT_FLOAT"}, "data_format": {"s": "TkhXQw=="}}}, {"name": "StatefulPartitionedCall/neural_network_2/mobile_net_v3_small_2/bottle_neck_23/depthwise_conv2d_23/depthwise", "op": "FusedDepthwiseConv2dNative", "input": ["StatefulPartitionedCall/neural_network_2/mobile_net_v3_small_2/bottle_neck_23/Relu6", "StatefulPartitionedCall/neural_network_2/mobile_net_v3_small_2/bottle_neck_23/depthwise_conv2d_23/depthwise_weights", "StatefulPartitionedCall/neural_network_2/mobile_net_v3_small_2/bottle_neck_23/depthwise_conv2d_23/depthwise_bn_offset"], "attr": {"padding": {"s": "U0FNRQ=="}, "explicit_paddings": {"list": {}}, "T": {"type": "DT_FLOAT"}, "dilations": {"list": {"i": ["1", "1", "1", "1"]}}, "num_args": {"i": "1"}, "fused_ops": {"list": {"s": ["Qmlhc0FkZA==", "UmVsdTY="]}}, "data_format": {"s": "TkhXQw=="}, "strides": {"list": {"i": ["1", "2", "2", "1"]}}}}, {"name": "StatefulPartitionedCall/neural_network_2/mobile_net_v3_small_2/bottle_neck_23/batch_normalization_78/FusedBatchNormV3", "op": "_FusedConv2D", "input": ["StatefulPartitionedCall/neural_network_2/mobile_net_v3_small_2/bottle_neck_23/depthwise_conv2d_23/depthwise", "StatefulPartitionedCall/neural_network_2/mobile_net_v3_small_2/bottle_neck_23/conv2d_56/Conv2D_weights", "StatefulPartitionedCall/neural_network_2/mobile_net_v3_small_2/bottle_neck_23/conv2d_56/Conv2D_bn_offset"], "device": "/device:CPU:0", "attr": {"use_cudnn_on_gpu": {"b": true}, "epsilon": {"f": 0.0}, "strides": {"list": {"i": ["1", "1", "1", "1"]}}, "dilations": {"list": {"i": ["1", "1", "1", "1"]}}, "explicit_paddings": {"list": {}}, "padding": {"s": "U0FNRQ=="}, "fused_ops": {"list": {"s": ["Qmlhc0FkZA=="]}}, "num_args": {"i": "1"}, "data_format": {"s": "TkhXQw=="}, "T": {"type": "DT_FLOAT"}}}, {"name": "StatefulPartitionedCall/neural_network_2/mobile_net_v3_small_2/bottle_neck_24/Relu6", "op": "_FusedConv2D", "input": ["StatefulPartitionedCall/neural_network_2/mobile_net_v3_small_2/bottle_neck_23/batch_normalization_78/FusedBatchNormV3", "StatefulPartitionedCall/neural_network_2/mobile_net_v3_small_2/bottle_neck_24/conv2d_57/Conv2D_weights", "StatefulPartitionedCall/neural_network_2/mobile_net_v3_small_2/bottle_neck_24/conv2d_57/Conv2D_bn_offset"], "device": "/device:CPU:0", "attr": {"padding": {"s": "U0FNRQ=="}, "explicit_paddings": {"list": {}}, "dilations": {"list": {"i": ["1", "1", "1", "1"]}}, "fused_ops": {"list": {"s": ["Qmlhc0FkZA==", "UmVsdTY="]}}, "num_args": {"i": "1"}, "epsilon": {"f": 0.0}, "use_cudnn_on_gpu": {"b": true}, "T": {"type": "DT_FLOAT"}, "data_format": {"s": "TkhXQw=="}, "strides": {"list": {"i": ["1", "1", "1", "1"]}}}}, {"name": "StatefulPartitionedCall/neural_network_2/mobile_net_v3_small_2/bottle_neck_24/depthwise_conv2d_24/depthwise", "op": "FusedDepthwiseConv2dNative", "input": ["StatefulPartitionedCall/neural_network_2/mobile_net_v3_small_2/bottle_neck_24/Relu6", "StatefulPartitionedCall/neural_network_2/mobile_net_v3_small_2/bottle_neck_24/depthwise_conv2d_24/depthwise_weights", "StatefulPartitionedCall/neural_network_2/mobile_net_v3_small_2/bottle_neck_24/depthwise_conv2d_24/depthwise_bn_offset"], "attr": {"padding": {"s": "U0FNRQ=="}, "data_format": {"s": "TkhXQw=="}, "fused_ops": {"list": {"s": ["Qmlhc0FkZA==", "UmVsdTY="]}}, "explicit_paddings": {"list": {}}, "strides": {"list": {"i": ["1", "1", "1", "1"]}}, "dilations": {"list": {"i": ["1", "1", "1", "1"]}}, "num_args": {"i": "1"}, "T": {"type": "DT_FLOAT"}}}, {"name": "StatefulPartitionedCall/neural_network_2/mobile_net_v3_small_2/bottle_neck_24/batch_normalization_81/FusedBatchNormV3", "op": "_FusedConv2D", "input": ["StatefulPartitionedCall/neural_network_2/mobile_net_v3_small_2/bottle_neck_24/depthwise_conv2d_24/depthwise", "StatefulPartitionedCall/neural_network_2/mobile_net_v3_small_2/bottle_neck_24/conv2d_58/Conv2D_weights", "StatefulPartitionedCall/neural_network_2/mobile_net_v3_small_2/bottle_neck_24/conv2d_58/Conv2D_bn_offset"], "device": "/device:CPU:0", "attr": {"use_cudnn_on_gpu": {"b": true}, "data_format": {"s": "TkhXQw=="}, "explicit_paddings": {"list": {}}, "strides": {"list": {"i": ["1", "1", "1", "1"]}}, "dilations": {"list": {"i": ["1", "1", "1", "1"]}}, "T": {"type": "DT_FLOAT"}, "fused_ops": {"list": {"s": ["Qmlhc0FkZA=="]}}, "padding": {"s": "U0FNRQ=="}, "epsilon": {"f": 0.0}, "num_args": {"i": "1"}}}, {"name": "StatefulPartitionedCall/neural_network_2/mobile_net_v3_small_2/bottle_neck_24/add/add", "op": "AddV2", "input": ["StatefulPartitionedCall/neural_network_2/mobile_net_v3_small_2/bottle_neck_24/batch_normalization_81/FusedBatchNormV3", "StatefulPartitionedCall/neural_network_2/mobile_net_v3_small_2/bottle_neck_23/batch_normalization_78/FusedBatchNormV3"], "attr": {"T": {"type": "DT_FLOAT"}}}, {"name": "StatefulPartitionedCall/neural_network_2/mobile_net_v3_small_2/bottle_neck_25/batch_normalization_82/FusedBatchNormV3", "op": "_FusedConv2D", "input": ["StatefulPartitionedCall/neural_network_2/mobile_net_v3_small_2/bottle_neck_24/add/add", "StatefulPartitionedCall/neural_network_2/mobile_net_v3_small_2/bottle_neck_25/conv2d_59/Conv2D_weights", "StatefulPartitionedCall/neural_network_2/mobile_net_v3_small_2/bottle_neck_25/conv2d_59/Conv2D_bn_offset"], "device": "/device:CPU:0", "attr": {"strides": {"list": {"i": ["1", "1", "1", "1"]}}, "fused_ops": {"list": {"s": ["Qmlhc0FkZA=="]}}, "use_cudnn_on_gpu": {"b": true}, "data_format": {"s": "TkhXQw=="}, "explicit_paddings": {"list": {}}, "T": {"type": "DT_FLOAT"}, "padding": {"s": "U0FNRQ=="}, "dilations": {"list": {"i": ["1", "1", "1", "1"]}}, "epsilon": {"f": 0.0}, "num_args": {"i": "1"}}}, {"name": "StatefulPartitionedCall/neural_network_2/mobile_net_v3_small_2/bottle_neck_25/truediv", "op": "Mul", "input": ["ConstantFolding/StatefulPartitionedCall/neural_network_2/mobile_net_v3_small_2/bottle_neck_25/truediv_recip", "StatefulPartitionedCall/neural_network_2/mobile_net_v3_small_2/bottle_neck_25/batch_normalization_82/FusedBatchNormV3"], "attr": {"T": {"type": "DT_FLOAT"}, "_grappler_ArithmeticOptimizer_MinimizeBroadcasts": {"b": true}}}, {"name": "StatefulPartitionedCall/neural_network_2/mobile_net_v3_small_2/bottle_neck_25/add", "op": "AddV2", "input": ["StatefulPartitionedCall/neural_network_2/mobile_net_v3_small_2/bottle_neck_25/batch_normalization_82/FusedBatchNormV3", "StatefulPartitionedCall/neural_network_2/mobile_net_v3_small_2/bottle_neck_25/add/y"], "attr": {"T": {"type": "DT_FLOAT"}}}, {"name": "StatefulPartitionedCall/neural_network_2/mobile_net_v3_small_2/bottle_neck_25/Relu6", "op": "Relu6", "input": ["StatefulPartitionedCall/neural_network_2/mobile_net_v3_small_2/bottle_neck_25/add"], "attr": {"T": {"type": "DT_FLOAT"}}}, {"name": "StatefulPartitionedCall/neural_network_2/mobile_net_v3_small_2/bottle_neck_25/mul", "op": "Mul", "input": ["StatefulPartitionedCall/neural_network_2/mobile_net_v3_small_2/bottle_neck_25/truediv", "StatefulPartitionedCall/neural_network_2/mobile_net_v3_small_2/bottle_neck_25/Relu6"], "attr": {"T": {"type": "DT_FLOAT"}, "_grappler_ArithmeticOptimizer_MinimizeBroadcasts": {"b": true}}}, {"name": "StatefulPartitionedCall/neural_network_2/mobile_net_v3_small_2/bottle_neck_25/depthwise_conv2d_25/depthwise", "op": "FusedDepthwiseConv2dNative", "input": ["StatefulPartitionedCall/neural_network_2/mobile_net_v3_small_2/bottle_neck_25/mul", "StatefulPartitionedCall/neural_network_2/mobile_net_v3_small_2/bottle_neck_25/depthwise_conv2d_25/depthwise_weights", "StatefulPartitionedCall/neural_network_2/mobile_net_v3_small_2/bottle_neck_25/depthwise_conv2d_25/depthwise_bn_offset"], "attr": {"strides": {"list": {"i": ["1", "2", "2", "1"]}}, "num_args": {"i": "1"}, "T": {"type": "DT_FLOAT"}, "fused_ops": {"list": {"s": ["Qmlhc0FkZA=="]}}, "data_format": {"s": "TkhXQw=="}, "padding": {"s": "U0FNRQ=="}, "explicit_paddings": {"list": {}}, "dilations": {"list": {"i": ["1", "1", "1", "1"]}}}}, {"name": "StatefulPartitionedCall/neural_network_2/mobile_net_v3_small_2/bottle_neck_25/truediv_1", "op": "Mul", "input": ["ConstantFolding/StatefulPartitionedCall/neural_network_2/mobile_net_v3_small_2/bottle_neck_25/truediv_1_recip", "StatefulPartitionedCall/neural_network_2/mobile_net_v3_small_2/bottle_neck_25/depthwise_conv2d_25/depthwise"], "attr": {"_grappler_ArithmeticOptimizer_MinimizeBroadcasts": {"b": true}, "T": {"type": "DT_FLOAT"}}}, {"name": "StatefulPartitionedCall/neural_network_2/mobile_net_v3_small_2/bottle_neck_25/add_1", "op": "AddV2", "input": ["StatefulPartitionedCall/neural_network_2/mobile_net_v3_small_2/bottle_neck_25/depthwise_conv2d_25/depthwise", "StatefulPartitionedCall/neural_network_2/mobile_net_v3_small_2/bottle_neck_25/add_1/y"], "attr": {"T": {"type": "DT_FLOAT"}}}, {"name": "StatefulPartitionedCall/neural_network_2/mobile_net_v3_small_2/bottle_neck_25/Relu6_1", "op": "Relu6", "input": ["StatefulPartitionedCall/neural_network_2/mobile_net_v3_small_2/bottle_neck_25/add_1"], "attr": {"T": {"type": "DT_FLOAT"}}}, {"name": "StatefulPartitionedCall/neural_network_2/mobile_net_v3_small_2/bottle_neck_25/mul_1", "op": "Mul", "input": ["StatefulPartitionedCall/neural_network_2/mobile_net_v3_small_2/bottle_neck_25/truediv_1", "StatefulPartitionedCall/neural_network_2/mobile_net_v3_small_2/bottle_neck_25/Relu6_1"], "attr": {"_grappler_ArithmeticOptimizer_MinimizeBroadcasts": {"b": true}, "T": {"type": "DT_FLOAT"}}}, {"name": "StatefulPartitionedCall/neural_network_2/mobile_net_v3_small_2/bottle_neck_25/se_block_25/global_average_pooling2d_27/Mean", "op": "Mean", "input": ["StatefulPartitionedCall/neural_network_2/mobile_net_v3_small_2/bottle_neck_25/mul_1", "StatefulPartitionedCall/neural_network_2/mobile_net_v3_small_2/bottle_neck_25/se_block_25/global_average_pooling2d_27/Mean/reduction_indices"], "attr": {"keep_dims": {"b": false}, "T": {"type": "DT_FLOAT"}, "Tidx": {"type": "DT_INT32"}}}, {"name": "StatefulPartitionedCall/neural_network_2/mobile_net_v3_small_2/bottle_neck_25/se_block_25/activation_50/Relu", "op": "_FusedMatMul", "input": ["StatefulPartitionedCall/neural_network_2/mobile_net_v3_small_2/bottle_neck_25/se_block_25/global_average_pooling2d_27/Mean", "StatefulPartitionedCall/neural_network_2/mobile_net_v3_small_2/bottle_neck_25/se_block_25/dense_86/MatMul/ReadVariableOp", "StatefulPartitionedCall/neural_network_2/mobile_net_v3_small_2/bottle_neck_25/se_block_25/dense_86/BiasAdd/ReadVariableOp"], "device": "/device:CPU:0", "attr": {"num_args": {"i": "1"}, "epsilon": {"f": 0.0}, "T": {"type": "DT_FLOAT"}, "fused_ops": {"list": {"s": ["Qmlhc0FkZA==", "UmVsdQ=="]}}, "transpose_b": {"b": false}, "transpose_a": {"b": false}}}, {"name": "StatefulPartitionedCall/neural_network_2/mobile_net_v3_small_2/bottle_neck_25/se_block_25/dense_87/BiasAdd", "op": "_FusedMatMul", "input": ["StatefulPartitionedCall/neural_network_2/mobile_net_v3_small_2/bottle_neck_25/se_block_25/activation_50/Relu", "StatefulPartitionedCall/neural_network_2/mobile_net_v3_small_2/bottle_neck_25/se_block_25/dense_87/MatMul/ReadVariableOp", "StatefulPartitionedCall/neural_network_2/mobile_net_v3_small_2/bottle_neck_25/se_block_25/dense_87/BiasAdd/ReadVariableOp"], "device": "/device:CPU:0", "attr": {"T": {"type": "DT_FLOAT"}, "transpose_b": {"b": false}, "fused_ops": {"list": {"s": ["Qmlhc0FkZA=="]}}, "num_args": {"i": "1"}, "epsilon": {"f": 0.0}, "transpose_a": {"b": false}}}, {"name": "StatefulPartitionedCall/neural_network_2/mobile_net_v3_small_2/bottle_neck_25/se_block_25/add", "op": "AddV2", "input": ["StatefulPartitionedCall/neural_network_2/mobile_net_v3_small_2/bottle_neck_25/se_block_25/dense_87/BiasAdd", "StatefulPartitionedCall/neural_network_2/mobile_net_v3_small_2/bottle_neck_25/se_block_25/add/y"], "attr": {"T": {"type": "DT_FLOAT"}}}, {"name": "StatefulPartitionedCall/neural_network_2/mobile_net_v3_small_2/bottle_neck_25/se_block_25/Relu6", "op": "Relu6", "input": ["StatefulPartitionedCall/neural_network_2/mobile_net_v3_small_2/bottle_neck_25/se_block_25/add"], "attr": {"T": {"type": "DT_FLOAT"}}}, {"name": "StatefulPartitionedCall/neural_network_2/mobile_net_v3_small_2/bottle_neck_25/se_block_25/truediv", "op": "Mul", "input": ["StatefulPartitionedCall/neural_network_2/mobile_net_v3_small_2/bottle_neck_25/se_block_25/Relu6", "ConstantFolding/StatefulPartitionedCall/neural_network_2/mobile_net_v3_small_2/bottle_neck_25/se_block_25/truediv_recip"], "attr": {"T": {"type": "DT_FLOAT"}}}, {"name": "StatefulPartitionedCall/neural_network_2/mobile_net_v3_small_2/bottle_neck_25/se_block_25/ExpandDims", "op": "ExpandDims", "input": ["StatefulPartitionedCall/neural_network_2/mobile_net_v3_small_2/bottle_neck_25/se_block_25/truediv", "StatefulPartitionedCall/neural_network_2/mobile_net_v3_small_2/bottle_neck_25/se_block_25/ExpandDims/dim"], "attr": {"Tdim": {"type": "DT_INT32"}, "T": {"type": "DT_FLOAT"}}}, {"name": "StatefulPartitionedCall/neural_network_2/mobile_net_v3_small_2/bottle_neck_25/se_block_25/ExpandDims_1", "op": "ExpandDims", "input": ["StatefulPartitionedCall/neural_network_2/mobile_net_v3_small_2/bottle_neck_25/se_block_25/ExpandDims", "StatefulPartitionedCall/neural_network_2/mobile_net_v3_small_2/bottle_neck_25/se_block_25/ExpandDims_1/dim"], "attr": {"Tdim": {"type": "DT_INT32"}, "T": {"type": "DT_FLOAT"}}}, {"name": "StatefulPartitionedCall/neural_network_2/mobile_net_v3_small_2/bottle_neck_25/se_block_25/mul", "op": "Mul", "input": ["StatefulPartitionedCall/neural_network_2/mobile_net_v3_small_2/bottle_neck_25/mul_1", "StatefulPartitionedCall/neural_network_2/mobile_net_v3_small_2/bottle_neck_25/se_block_25/ExpandDims_1"], "attr": {"T": {"type": "DT_FLOAT"}}}, {"name": "StatefulPartitionedCall/neural_network_2/mobile_net_v3_small_2/bottle_neck_25/batch_normalization_84/FusedBatchNormV3", "op": "_FusedConv2D", "input": ["StatefulPartitionedCall/neural_network_2/mobile_net_v3_small_2/bottle_neck_25/se_block_25/mul", "StatefulPartitionedCall/neural_network_2/mobile_net_v3_small_2/bottle_neck_25/conv2d_60/Conv2D_weights", "StatefulPartitionedCall/neural_network_2/mobile_net_v3_small_2/bottle_neck_25/conv2d_60/Conv2D_bn_offset"], "device": "/device:CPU:0", "attr": {"epsilon": {"f": 0.0}, "num_args": {"i": "1"}, "data_format": {"s": "TkhXQw=="}, "use_cudnn_on_gpu": {"b": true}, "T": {"type": "DT_FLOAT"}, "padding": {"s": "U0FNRQ=="}, "strides": {"list": {"i": ["1", "1", "1", "1"]}}, "dilations": {"list": {"i": ["1", "1", "1", "1"]}}, "fused_ops": {"list": {"s": ["Qmlhc0FkZA=="]}}, "explicit_paddings": {"list": {}}}}, {"name": "StatefulPartitionedCall/neural_network_2/mobile_net_v3_small_2/bottle_neck_26/batch_normalization_85/FusedBatchNormV3", "op": "_FusedConv2D", "input": ["StatefulPartitionedCall/neural_network_2/mobile_net_v3_small_2/bottle_neck_25/batch_normalization_84/FusedBatchNormV3", "StatefulPartitionedCall/neural_network_2/mobile_net_v3_small_2/bottle_neck_26/conv2d_61/Conv2D_weights", "StatefulPartitionedCall/neural_network_2/mobile_net_v3_small_2/bottle_neck_26/conv2d_61/Conv2D_bn_offset"], "device": "/device:CPU:0", "attr": {"num_args": {"i": "1"}, "fused_ops": {"list": {"s": ["Qmlhc0FkZA=="]}}, "data_format": {"s": "TkhXQw=="}, "strides": {"list": {"i": ["1", "1", "1", "1"]}}, "use_cudnn_on_gpu": {"b": true}, "dilations": {"list": {"i": ["1", "1", "1", "1"]}}, "explicit_paddings": {"list": {}}, "padding": {"s": "U0FNRQ=="}, "epsilon": {"f": 0.0}, "T": {"type": "DT_FLOAT"}}}, {"name": "StatefulPartitionedCall/neural_network_2/mobile_net_v3_small_2/bottle_neck_26/truediv", "op": "Mul", "input": ["ConstantFolding/StatefulPartitionedCall/neural_network_2/mobile_net_v3_small_2/bottle_neck_26/truediv_recip", "StatefulPartitionedCall/neural_network_2/mobile_net_v3_small_2/bottle_neck_26/batch_normalization_85/FusedBatchNormV3"], "attr": {"_grappler_ArithmeticOptimizer_MinimizeBroadcasts": {"b": true}, "T": {"type": "DT_FLOAT"}}}, {"name": "StatefulPartitionedCall/neural_network_2/mobile_net_v3_small_2/bottle_neck_26/add", "op": "AddV2", "input": ["StatefulPartitionedCall/neural_network_2/mobile_net_v3_small_2/bottle_neck_26/batch_normalization_85/FusedBatchNormV3", "StatefulPartitionedCall/neural_network_2/mobile_net_v3_small_2/bottle_neck_26/add/y"], "attr": {"T": {"type": "DT_FLOAT"}}}, {"name": "StatefulPartitionedCall/neural_network_2/mobile_net_v3_small_2/bottle_neck_26/Relu6", "op": "Relu6", "input": ["StatefulPartitionedCall/neural_network_2/mobile_net_v3_small_2/bottle_neck_26/add"], "attr": {"T": {"type": "DT_FLOAT"}}}, {"name": "StatefulPartitionedCall/neural_network_2/mobile_net_v3_small_2/bottle_neck_26/mul", "op": "Mul", "input": ["StatefulPartitionedCall/neural_network_2/mobile_net_v3_small_2/bottle_neck_26/truediv", "StatefulPartitionedCall/neural_network_2/mobile_net_v3_small_2/bottle_neck_26/Relu6"], "attr": {"_grappler_ArithmeticOptimizer_MinimizeBroadcasts": {"b": true}, "T": {"type": "DT_FLOAT"}}}, {"name": "StatefulPartitionedCall/neural_network_2/mobile_net_v3_small_2/bottle_neck_26/depthwise_conv2d_26/depthwise", "op": "FusedDepthwiseConv2dNative", "input": ["StatefulPartitionedCall/neural_network_2/mobile_net_v3_small_2/bottle_neck_26/mul", "StatefulPartitionedCall/neural_network_2/mobile_net_v3_small_2/bottle_neck_26/depthwise_conv2d_26/depthwise_weights", "StatefulPartitionedCall/neural_network_2/mobile_net_v3_small_2/bottle_neck_26/depthwise_conv2d_26/depthwise_bn_offset"], "attr": {"strides": {"list": {"i": ["1", "1", "1", "1"]}}, "num_args": {"i": "1"}, "data_format": {"s": "TkhXQw=="}, "fused_ops": {"list": {"s": ["Qmlhc0FkZA=="]}}, "padding": {"s": "U0FNRQ=="}, "T": {"type": "DT_FLOAT"}, "dilations": {"list": {"i": ["1", "1", "1", "1"]}}, "explicit_paddings": {"list": {}}}}, {"name": "StatefulPartitionedCall/neural_network_2/mobile_net_v3_small_2/bottle_neck_26/truediv_1", "op": "Mul", "input": ["ConstantFolding/StatefulPartitionedCall/neural_network_2/mobile_net_v3_small_2/bottle_neck_26/truediv_1_recip", "StatefulPartitionedCall/neural_network_2/mobile_net_v3_small_2/bottle_neck_26/depthwise_conv2d_26/depthwise"], "attr": {"T": {"type": "DT_FLOAT"}, "_grappler_ArithmeticOptimizer_MinimizeBroadcasts": {"b": true}}}, {"name": "StatefulPartitionedCall/neural_network_2/mobile_net_v3_small_2/bottle_neck_26/add_1", "op": "AddV2", "input": ["StatefulPartitionedCall/neural_network_2/mobile_net_v3_small_2/bottle_neck_26/depthwise_conv2d_26/depthwise", "StatefulPartitionedCall/neural_network_2/mobile_net_v3_small_2/bottle_neck_26/add_1/y"], "attr": {"T": {"type": "DT_FLOAT"}}}, {"name": "StatefulPartitionedCall/neural_network_2/mobile_net_v3_small_2/bottle_neck_26/Relu6_1", "op": "Relu6", "input": ["StatefulPartitionedCall/neural_network_2/mobile_net_v3_small_2/bottle_neck_26/add_1"], "attr": {"T": {"type": "DT_FLOAT"}}}, {"name": "StatefulPartitionedCall/neural_network_2/mobile_net_v3_small_2/bottle_neck_26/mul_1", "op": "Mul", "input": ["StatefulPartitionedCall/neural_network_2/mobile_net_v3_small_2/bottle_neck_26/truediv_1", "StatefulPartitionedCall/neural_network_2/mobile_net_v3_small_2/bottle_neck_26/Relu6_1"], "attr": {"_grappler_ArithmeticOptimizer_MinimizeBroadcasts": {"b": true}, "T": {"type": "DT_FLOAT"}}}, {"name": "StatefulPartitionedCall/neural_network_2/mobile_net_v3_small_2/bottle_neck_26/se_block_26/global_average_pooling2d_28/Mean", "op": "Mean", "input": ["StatefulPartitionedCall/neural_network_2/mobile_net_v3_small_2/bottle_neck_26/mul_1", "StatefulPartitionedCall/neural_network_2/mobile_net_v3_small_2/bottle_neck_26/se_block_26/global_average_pooling2d_28/Mean/reduction_indices"], "attr": {"keep_dims": {"b": false}, "T": {"type": "DT_FLOAT"}, "Tidx": {"type": "DT_INT32"}}}, {"name": "StatefulPartitionedCall/neural_network_2/mobile_net_v3_small_2/bottle_neck_26/se_block_26/activation_52/Relu", "op": "_FusedMatMul", "input": ["StatefulPartitionedCall/neural_network_2/mobile_net_v3_small_2/bottle_neck_26/se_block_26/global_average_pooling2d_28/Mean", "StatefulPartitionedCall/neural_network_2/mobile_net_v3_small_2/bottle_neck_26/se_block_26/dense_88/MatMul/ReadVariableOp", "StatefulPartitionedCall/neural_network_2/mobile_net_v3_small_2/bottle_neck_26/se_block_26/dense_88/BiasAdd/ReadVariableOp"], "device": "/device:CPU:0", "attr": {"fused_ops": {"list": {"s": ["Qmlhc0FkZA==", "UmVsdQ=="]}}, "transpose_b": {"b": false}, "transpose_a": {"b": false}, "num_args": {"i": "1"}, "epsilon": {"f": 0.0}, "T": {"type": "DT_FLOAT"}}}, {"name": "StatefulPartitionedCall/neural_network_2/mobile_net_v3_small_2/bottle_neck_26/se_block_26/dense_89/BiasAdd", "op": "_FusedMatMul", "input": ["StatefulPartitionedCall/neural_network_2/mobile_net_v3_small_2/bottle_neck_26/se_block_26/activation_52/Relu", "StatefulPartitionedCall/neural_network_2/mobile_net_v3_small_2/bottle_neck_26/se_block_26/dense_89/MatMul/ReadVariableOp", "StatefulPartitionedCall/neural_network_2/mobile_net_v3_small_2/bottle_neck_26/se_block_26/dense_89/BiasAdd/ReadVariableOp"], "device": "/device:CPU:0", "attr": {"epsilon": {"f": 0.0}, "transpose_a": {"b": false}, "num_args": {"i": "1"}, "transpose_b": {"b": false}, "T": {"type": "DT_FLOAT"}, "fused_ops": {"list": {"s": ["Qmlhc0FkZA=="]}}}}, {"name": "StatefulPartitionedCall/neural_network_2/mobile_net_v3_small_2/bottle_neck_26/se_block_26/add", "op": "AddV2", "input": ["StatefulPartitionedCall/neural_network_2/mobile_net_v3_small_2/bottle_neck_26/se_block_26/dense_89/BiasAdd", "StatefulPartitionedCall/neural_network_2/mobile_net_v3_small_2/bottle_neck_26/se_block_26/add/y"], "attr": {"T": {"type": "DT_FLOAT"}}}, {"name": "StatefulPartitionedCall/neural_network_2/mobile_net_v3_small_2/bottle_neck_26/se_block_26/Relu6", "op": "Relu6", "input": ["StatefulPartitionedCall/neural_network_2/mobile_net_v3_small_2/bottle_neck_26/se_block_26/add"], "attr": {"T": {"type": "DT_FLOAT"}}}, {"name": "StatefulPartitionedCall/neural_network_2/mobile_net_v3_small_2/bottle_neck_26/se_block_26/truediv", "op": "Mul", "input": ["StatefulPartitionedCall/neural_network_2/mobile_net_v3_small_2/bottle_neck_26/se_block_26/Relu6", "ConstantFolding/StatefulPartitionedCall/neural_network_2/mobile_net_v3_small_2/bottle_neck_26/se_block_26/truediv_recip"], "attr": {"T": {"type": "DT_FLOAT"}}}, {"name": "StatefulPartitionedCall/neural_network_2/mobile_net_v3_small_2/bottle_neck_26/se_block_26/ExpandDims", "op": "ExpandDims", "input": ["StatefulPartitionedCall/neural_network_2/mobile_net_v3_small_2/bottle_neck_26/se_block_26/truediv", "StatefulPartitionedCall/neural_network_2/mobile_net_v3_small_2/bottle_neck_26/se_block_26/ExpandDims/dim"], "attr": {"T": {"type": "DT_FLOAT"}, "Tdim": {"type": "DT_INT32"}}}, {"name": "StatefulPartitionedCall/neural_network_2/mobile_net_v3_small_2/bottle_neck_26/se_block_26/ExpandDims_1", "op": "ExpandDims", "input": ["StatefulPartitionedCall/neural_network_2/mobile_net_v3_small_2/bottle_neck_26/se_block_26/ExpandDims", "StatefulPartitionedCall/neural_network_2/mobile_net_v3_small_2/bottle_neck_26/se_block_26/ExpandDims_1/dim"], "attr": {"Tdim": {"type": "DT_INT32"}, "T": {"type": "DT_FLOAT"}}}, {"name": "StatefulPartitionedCall/neural_network_2/mobile_net_v3_small_2/bottle_neck_26/se_block_26/mul", "op": "Mul", "input": ["StatefulPartitionedCall/neural_network_2/mobile_net_v3_small_2/bottle_neck_26/mul_1", "StatefulPartitionedCall/neural_network_2/mobile_net_v3_small_2/bottle_neck_26/se_block_26/ExpandDims_1"], "attr": {"T": {"type": "DT_FLOAT"}}}, {"name": "StatefulPartitionedCall/neural_network_2/mobile_net_v3_small_2/bottle_neck_26/batch_normalization_87/FusedBatchNormV3", "op": "_FusedConv2D", "input": ["StatefulPartitionedCall/neural_network_2/mobile_net_v3_small_2/bottle_neck_26/se_block_26/mul", "StatefulPartitionedCall/neural_network_2/mobile_net_v3_small_2/bottle_neck_26/conv2d_62/Conv2D_weights", "StatefulPartitionedCall/neural_network_2/mobile_net_v3_small_2/bottle_neck_26/conv2d_62/Conv2D_bn_offset"], "device": "/device:CPU:0", "attr": {"dilations": {"list": {"i": ["1", "1", "1", "1"]}}, "explicit_paddings": {"list": {}}, "padding": {"s": "U0FNRQ=="}, "epsilon": {"f": 0.0}, "T": {"type": "DT_FLOAT"}, "num_args": {"i": "1"}, "fused_ops": {"list": {"s": ["Qmlhc0FkZA=="]}}, "data_format": {"s": "TkhXQw=="}, "strides": {"list": {"i": ["1", "1", "1", "1"]}}, "use_cudnn_on_gpu": {"b": true}}}, {"name": "StatefulPartitionedCall/neural_network_2/mobile_net_v3_small_2/bottle_neck_26/add_1/add", "op": "AddV2", "input": ["StatefulPartitionedCall/neural_network_2/mobile_net_v3_small_2/bottle_neck_26/batch_normalization_87/FusedBatchNormV3", "StatefulPartitionedCall/neural_network_2/mobile_net_v3_small_2/bottle_neck_25/batch_normalization_84/FusedBatchNormV3"], "attr": {"T": {"type": "DT_FLOAT"}}}, {"name": "StatefulPartitionedCall/neural_network_2/mobile_net_v3_small_2/bottle_neck_27/batch_normalization_88/FusedBatchNormV3", "op": "_FusedConv2D", "input": ["StatefulPartitionedCall/neural_network_2/mobile_net_v3_small_2/bottle_neck_26/add_1/add", "StatefulPartitionedCall/neural_network_2/mobile_net_v3_small_2/bottle_neck_27/conv2d_63/Conv2D_weights", "StatefulPartitionedCall/neural_network_2/mobile_net_v3_small_2/bottle_neck_27/conv2d_63/Conv2D_bn_offset"], "device": "/device:CPU:0", "attr": {"dilations": {"list": {"i": ["1", "1", "1", "1"]}}, "strides": {"list": {"i": ["1", "1", "1", "1"]}}, "T": {"type": "DT_FLOAT"}, "fused_ops": {"list": {"s": ["Qmlhc0FkZA=="]}}, "num_args": {"i": "1"}, "padding": {"s": "U0FNRQ=="}, "epsilon": {"f": 0.0}, "use_cudnn_on_gpu": {"b": true}, "data_format": {"s": "TkhXQw=="}, "explicit_paddings": {"list": {}}}}, {"name": "StatefulPartitionedCall/neural_network_2/mobile_net_v3_small_2/bottle_neck_27/truediv", "op": "Mul", "input": ["ConstantFolding/StatefulPartitionedCall/neural_network_2/mobile_net_v3_small_2/bottle_neck_27/truediv_recip", "StatefulPartitionedCall/neural_network_2/mobile_net_v3_small_2/bottle_neck_27/batch_normalization_88/FusedBatchNormV3"], "attr": {"T": {"type": "DT_FLOAT"}, "_grappler_ArithmeticOptimizer_MinimizeBroadcasts": {"b": true}}}, {"name": "StatefulPartitionedCall/neural_network_2/mobile_net_v3_small_2/bottle_neck_27/add", "op": "AddV2", "input": ["StatefulPartitionedCall/neural_network_2/mobile_net_v3_small_2/bottle_neck_27/batch_normalization_88/FusedBatchNormV3", "StatefulPartitionedCall/neural_network_2/mobile_net_v3_small_2/bottle_neck_27/add/y"], "attr": {"T": {"type": "DT_FLOAT"}}}, {"name": "StatefulPartitionedCall/neural_network_2/mobile_net_v3_small_2/bottle_neck_27/Relu6", "op": "Relu6", "input": ["StatefulPartitionedCall/neural_network_2/mobile_net_v3_small_2/bottle_neck_27/add"], "attr": {"T": {"type": "DT_FLOAT"}}}, {"name": "StatefulPartitionedCall/neural_network_2/mobile_net_v3_small_2/bottle_neck_27/mul", "op": "Mul", "input": ["StatefulPartitionedCall/neural_network_2/mobile_net_v3_small_2/bottle_neck_27/truediv", "StatefulPartitionedCall/neural_network_2/mobile_net_v3_small_2/bottle_neck_27/Relu6"], "attr": {"T": {"type": "DT_FLOAT"}, "_grappler_ArithmeticOptimizer_MinimizeBroadcasts": {"b": true}}}, {"name": "StatefulPartitionedCall/neural_network_2/mobile_net_v3_small_2/bottle_neck_27/depthwise_conv2d_27/depthwise", "op": "FusedDepthwiseConv2dNative", "input": ["StatefulPartitionedCall/neural_network_2/mobile_net_v3_small_2/bottle_neck_27/mul", "StatefulPartitionedCall/neural_network_2/mobile_net_v3_small_2/bottle_neck_27/depthwise_conv2d_27/depthwise_weights", "StatefulPartitionedCall/neural_network_2/mobile_net_v3_small_2/bottle_neck_27/depthwise_conv2d_27/depthwise_bn_offset"], "attr": {"T": {"type": "DT_FLOAT"}, "strides": {"list": {"i": ["1", "1", "1", "1"]}}, "padding": {"s": "U0FNRQ=="}, "dilations": {"list": {"i": ["1", "1", "1", "1"]}}, "fused_ops": {"list": {"s": ["Qmlhc0FkZA=="]}}, "explicit_paddings": {"list": {}}, "num_args": {"i": "1"}, "data_format": {"s": "TkhXQw=="}}}, {"name": "StatefulPartitionedCall/neural_network_2/mobile_net_v3_small_2/bottle_neck_27/truediv_1", "op": "Mul", "input": ["ConstantFolding/StatefulPartitionedCall/neural_network_2/mobile_net_v3_small_2/bottle_neck_27/truediv_1_recip", "StatefulPartitionedCall/neural_network_2/mobile_net_v3_small_2/bottle_neck_27/depthwise_conv2d_27/depthwise"], "attr": {"T": {"type": "DT_FLOAT"}, "_grappler_ArithmeticOptimizer_MinimizeBroadcasts": {"b": true}}}, {"name": "StatefulPartitionedCall/neural_network_2/mobile_net_v3_small_2/bottle_neck_27/add_1", "op": "AddV2", "input": ["StatefulPartitionedCall/neural_network_2/mobile_net_v3_small_2/bottle_neck_27/depthwise_conv2d_27/depthwise", "StatefulPartitionedCall/neural_network_2/mobile_net_v3_small_2/bottle_neck_27/add_1/y"], "attr": {"T": {"type": "DT_FLOAT"}}}, {"name": "StatefulPartitionedCall/neural_network_2/mobile_net_v3_small_2/bottle_neck_27/Relu6_1", "op": "Relu6", "input": ["StatefulPartitionedCall/neural_network_2/mobile_net_v3_small_2/bottle_neck_27/add_1"], "attr": {"T": {"type": "DT_FLOAT"}}}, {"name": "StatefulPartitionedCall/neural_network_2/mobile_net_v3_small_2/bottle_neck_27/mul_1", "op": "Mul", "input": ["StatefulPartitionedCall/neural_network_2/mobile_net_v3_small_2/bottle_neck_27/truediv_1", "StatefulPartitionedCall/neural_network_2/mobile_net_v3_small_2/bottle_neck_27/Relu6_1"], "attr": {"T": {"type": "DT_FLOAT"}, "_grappler_ArithmeticOptimizer_MinimizeBroadcasts": {"b": true}}}, {"name": "StatefulPartitionedCall/neural_network_2/mobile_net_v3_small_2/bottle_neck_27/se_block_27/global_average_pooling2d_29/Mean", "op": "Mean", "input": ["StatefulPartitionedCall/neural_network_2/mobile_net_v3_small_2/bottle_neck_27/mul_1", "StatefulPartitionedCall/neural_network_2/mobile_net_v3_small_2/bottle_neck_27/se_block_27/global_average_pooling2d_29/Mean/reduction_indices"], "attr": {"T": {"type": "DT_FLOAT"}, "Tidx": {"type": "DT_INT32"}, "keep_dims": {"b": false}}}, {"name": "StatefulPartitionedCall/neural_network_2/mobile_net_v3_small_2/bottle_neck_27/se_block_27/activation_54/Relu", "op": "_FusedMatMul", "input": ["StatefulPartitionedCall/neural_network_2/mobile_net_v3_small_2/bottle_neck_27/se_block_27/global_average_pooling2d_29/Mean", "StatefulPartitionedCall/neural_network_2/mobile_net_v3_small_2/bottle_neck_27/se_block_27/dense_90/MatMul/ReadVariableOp", "StatefulPartitionedCall/neural_network_2/mobile_net_v3_small_2/bottle_neck_27/se_block_27/dense_90/BiasAdd/ReadVariableOp"], "device": "/device:CPU:0", "attr": {"epsilon": {"f": 0.0}, "num_args": {"i": "1"}, "fused_ops": {"list": {"s": ["Qmlhc0FkZA==", "UmVsdQ=="]}}, "T": {"type": "DT_FLOAT"}, "transpose_b": {"b": false}, "transpose_a": {"b": false}}}, {"name": "StatefulPartitionedCall/neural_network_2/mobile_net_v3_small_2/bottle_neck_27/se_block_27/dense_91/BiasAdd", "op": "_FusedMatMul", "input": ["StatefulPartitionedCall/neural_network_2/mobile_net_v3_small_2/bottle_neck_27/se_block_27/activation_54/Relu", "StatefulPartitionedCall/neural_network_2/mobile_net_v3_small_2/bottle_neck_27/se_block_27/dense_91/MatMul/ReadVariableOp", "StatefulPartitionedCall/neural_network_2/mobile_net_v3_small_2/bottle_neck_27/se_block_27/dense_91/BiasAdd/ReadVariableOp"], "device": "/device:CPU:0", "attr": {"T": {"type": "DT_FLOAT"}, "epsilon": {"f": 0.0}, "transpose_a": {"b": false}, "num_args": {"i": "1"}, "fused_ops": {"list": {"s": ["Qmlhc0FkZA=="]}}, "transpose_b": {"b": false}}}, {"name": "StatefulPartitionedCall/neural_network_2/mobile_net_v3_small_2/bottle_neck_27/se_block_27/add", "op": "AddV2", "input": ["StatefulPartitionedCall/neural_network_2/mobile_net_v3_small_2/bottle_neck_27/se_block_27/dense_91/BiasAdd", "StatefulPartitionedCall/neural_network_2/mobile_net_v3_small_2/bottle_neck_27/se_block_27/add/y"], "attr": {"T": {"type": "DT_FLOAT"}}}, {"name": "StatefulPartitionedCall/neural_network_2/mobile_net_v3_small_2/bottle_neck_27/se_block_27/Relu6", "op": "Relu6", "input": ["StatefulPartitionedCall/neural_network_2/mobile_net_v3_small_2/bottle_neck_27/se_block_27/add"], "attr": {"T": {"type": "DT_FLOAT"}}}, {"name": "StatefulPartitionedCall/neural_network_2/mobile_net_v3_small_2/bottle_neck_27/se_block_27/truediv", "op": "Mul", "input": ["StatefulPartitionedCall/neural_network_2/mobile_net_v3_small_2/bottle_neck_27/se_block_27/Relu6", "ConstantFolding/StatefulPartitionedCall/neural_network_2/mobile_net_v3_small_2/bottle_neck_27/se_block_27/truediv_recip"], "attr": {"T": {"type": "DT_FLOAT"}}}, {"name": "StatefulPartitionedCall/neural_network_2/mobile_net_v3_small_2/bottle_neck_27/se_block_27/ExpandDims", "op": "ExpandDims", "input": ["StatefulPartitionedCall/neural_network_2/mobile_net_v3_small_2/bottle_neck_27/se_block_27/truediv", "StatefulPartitionedCall/neural_network_2/mobile_net_v3_small_2/bottle_neck_27/se_block_27/ExpandDims/dim"], "attr": {"T": {"type": "DT_FLOAT"}, "Tdim": {"type": "DT_INT32"}}}, {"name": "StatefulPartitionedCall/neural_network_2/mobile_net_v3_small_2/bottle_neck_27/se_block_27/ExpandDims_1", "op": "ExpandDims", "input": ["StatefulPartitionedCall/neural_network_2/mobile_net_v3_small_2/bottle_neck_27/se_block_27/ExpandDims", "StatefulPartitionedCall/neural_network_2/mobile_net_v3_small_2/bottle_neck_27/se_block_27/ExpandDims_1/dim"], "attr": {"T": {"type": "DT_FLOAT"}, "Tdim": {"type": "DT_INT32"}}}, {"name": "StatefulPartitionedCall/neural_network_2/mobile_net_v3_small_2/bottle_neck_27/se_block_27/mul", "op": "Mul", "input": ["StatefulPartitionedCall/neural_network_2/mobile_net_v3_small_2/bottle_neck_27/mul_1", "StatefulPartitionedCall/neural_network_2/mobile_net_v3_small_2/bottle_neck_27/se_block_27/ExpandDims_1"], "attr": {"T": {"type": "DT_FLOAT"}}}, {"name": "StatefulPartitionedCall/neural_network_2/mobile_net_v3_small_2/bottle_neck_27/batch_normalization_90/FusedBatchNormV3", "op": "_FusedConv2D", "input": ["StatefulPartitionedCall/neural_network_2/mobile_net_v3_small_2/bottle_neck_27/se_block_27/mul", "StatefulPartitionedCall/neural_network_2/mobile_net_v3_small_2/bottle_neck_27/conv2d_64/Conv2D_weights", "StatefulPartitionedCall/neural_network_2/mobile_net_v3_small_2/bottle_neck_27/conv2d_64/Conv2D_bn_offset"], "device": "/device:CPU:0", "attr": {"use_cudnn_on_gpu": {"b": true}, "data_format": {"s": "TkhXQw=="}, "explicit_paddings": {"list": {}}, "dilations": {"list": {"i": ["1", "1", "1", "1"]}}, "epsilon": {"f": 0.0}, "fused_ops": {"list": {"s": ["Qmlhc0FkZA=="]}}, "strides": {"list": {"i": ["1", "1", "1", "1"]}}, "num_args": {"i": "1"}, "T": {"type": "DT_FLOAT"}, "padding": {"s": "U0FNRQ=="}}}, {"name": "StatefulPartitionedCall/neural_network_2/mobile_net_v3_small_2/bottle_neck_27/add_2/add", "op": "AddV2", "input": ["StatefulPartitionedCall/neural_network_2/mobile_net_v3_small_2/bottle_neck_27/batch_normalization_90/FusedBatchNormV3", "StatefulPartitionedCall/neural_network_2/mobile_net_v3_small_2/bottle_neck_26/add_1/add"], "attr": {"T": {"type": "DT_FLOAT"}}}, {"name": "StatefulPartitionedCall/neural_network_2/mobile_net_v3_small_2/bottle_neck_28/batch_normalization_91/FusedBatchNormV3", "op": "_FusedConv2D", "input": ["StatefulPartitionedCall/neural_network_2/mobile_net_v3_small_2/bottle_neck_27/add_2/add", "StatefulPartitionedCall/neural_network_2/mobile_net_v3_small_2/bottle_neck_28/conv2d_65/Conv2D_weights", "StatefulPartitionedCall/neural_network_2/mobile_net_v3_small_2/bottle_neck_28/conv2d_65/Conv2D_bn_offset"], "device": "/device:CPU:0", "attr": {"padding": {"s": "U0FNRQ=="}, "strides": {"list": {"i": ["1", "1", "1", "1"]}}, "T": {"type": "DT_FLOAT"}, "num_args": {"i": "1"}, "data_format": {"s": "TkhXQw=="}, "epsilon": {"f": 0.0}, "dilations": {"list": {"i": ["1", "1", "1", "1"]}}, "explicit_paddings": {"list": {}}, "use_cudnn_on_gpu": {"b": true}, "fused_ops": {"list": {"s": ["Qmlhc0FkZA=="]}}}}, {"name": "StatefulPartitionedCall/neural_network_2/mobile_net_v3_small_2/bottle_neck_28/truediv", "op": "Mul", "input": ["ConstantFolding/StatefulPartitionedCall/neural_network_2/mobile_net_v3_small_2/bottle_neck_28/truediv_recip", "StatefulPartitionedCall/neural_network_2/mobile_net_v3_small_2/bottle_neck_28/batch_normalization_91/FusedBatchNormV3"], "attr": {"_grappler_ArithmeticOptimizer_MinimizeBroadcasts": {"b": true}, "T": {"type": "DT_FLOAT"}}}, {"name": "StatefulPartitionedCall/neural_network_2/mobile_net_v3_small_2/bottle_neck_28/add", "op": "AddV2", "input": ["StatefulPartitionedCall/neural_network_2/mobile_net_v3_small_2/bottle_neck_28/batch_normalization_91/FusedBatchNormV3", "StatefulPartitionedCall/neural_network_2/mobile_net_v3_small_2/bottle_neck_28/add/y"], "attr": {"T": {"type": "DT_FLOAT"}}}, {"name": "StatefulPartitionedCall/neural_network_2/mobile_net_v3_small_2/bottle_neck_28/Relu6", "op": "Relu6", "input": ["StatefulPartitionedCall/neural_network_2/mobile_net_v3_small_2/bottle_neck_28/add"], "attr": {"T": {"type": "DT_FLOAT"}}}, {"name": "StatefulPartitionedCall/neural_network_2/mobile_net_v3_small_2/bottle_neck_28/mul", "op": "Mul", "input": ["StatefulPartitionedCall/neural_network_2/mobile_net_v3_small_2/bottle_neck_28/truediv", "StatefulPartitionedCall/neural_network_2/mobile_net_v3_small_2/bottle_neck_28/Relu6"], "attr": {"T": {"type": "DT_FLOAT"}, "_grappler_ArithmeticOptimizer_MinimizeBroadcasts": {"b": true}}}, {"name": "StatefulPartitionedCall/neural_network_2/mobile_net_v3_small_2/bottle_neck_28/depthwise_conv2d_28/depthwise", "op": "FusedDepthwiseConv2dNative", "input": ["StatefulPartitionedCall/neural_network_2/mobile_net_v3_small_2/bottle_neck_28/mul", "StatefulPartitionedCall/neural_network_2/mobile_net_v3_small_2/bottle_neck_28/depthwise_conv2d_28/depthwise_weights", "StatefulPartitionedCall/neural_network_2/mobile_net_v3_small_2/bottle_neck_28/depthwise_conv2d_28/depthwise_bn_offset"], "attr": {"padding": {"s": "U0FNRQ=="}, "explicit_paddings": {"list": {}}, "data_format": {"s": "TkhXQw=="}, "dilations": {"list": {"i": ["1", "1", "1", "1"]}}, "T": {"type": "DT_FLOAT"}, "fused_ops": {"list": {"s": ["Qmlhc0FkZA=="]}}, "strides": {"list": {"i": ["1", "1", "1", "1"]}}, "num_args": {"i": "1"}}}, {"name": "StatefulPartitionedCall/neural_network_2/mobile_net_v3_small_2/bottle_neck_28/truediv_1", "op": "Mul", "input": ["ConstantFolding/StatefulPartitionedCall/neural_network_2/mobile_net_v3_small_2/bottle_neck_28/truediv_1_recip", "StatefulPartitionedCall/neural_network_2/mobile_net_v3_small_2/bottle_neck_28/depthwise_conv2d_28/depthwise"], "attr": {"T": {"type": "DT_FLOAT"}, "_grappler_ArithmeticOptimizer_MinimizeBroadcasts": {"b": true}}}, {"name": "StatefulPartitionedCall/neural_network_2/mobile_net_v3_small_2/bottle_neck_28/add_1", "op": "AddV2", "input": ["StatefulPartitionedCall/neural_network_2/mobile_net_v3_small_2/bottle_neck_28/depthwise_conv2d_28/depthwise", "StatefulPartitionedCall/neural_network_2/mobile_net_v3_small_2/bottle_neck_28/add_1/y"], "attr": {"T": {"type": "DT_FLOAT"}}}, {"name": "StatefulPartitionedCall/neural_network_2/mobile_net_v3_small_2/bottle_neck_28/Relu6_1", "op": "Relu6", "input": ["StatefulPartitionedCall/neural_network_2/mobile_net_v3_small_2/bottle_neck_28/add_1"], "attr": {"T": {"type": "DT_FLOAT"}}}, {"name": "StatefulPartitionedCall/neural_network_2/mobile_net_v3_small_2/bottle_neck_28/mul_1", "op": "Mul", "input": ["StatefulPartitionedCall/neural_network_2/mobile_net_v3_small_2/bottle_neck_28/truediv_1", "StatefulPartitionedCall/neural_network_2/mobile_net_v3_small_2/bottle_neck_28/Relu6_1"], "attr": {"T": {"type": "DT_FLOAT"}, "_grappler_ArithmeticOptimizer_MinimizeBroadcasts": {"b": true}}}, {"name": "StatefulPartitionedCall/neural_network_2/mobile_net_v3_small_2/bottle_neck_28/se_block_28/global_average_pooling2d_30/Mean", "op": "Mean", "input": ["StatefulPartitionedCall/neural_network_2/mobile_net_v3_small_2/bottle_neck_28/mul_1", "StatefulPartitionedCall/neural_network_2/mobile_net_v3_small_2/bottle_neck_28/se_block_28/global_average_pooling2d_30/Mean/reduction_indices"], "attr": {"Tidx": {"type": "DT_INT32"}, "keep_dims": {"b": false}, "T": {"type": "DT_FLOAT"}}}, {"name": "StatefulPartitionedCall/neural_network_2/mobile_net_v3_small_2/bottle_neck_28/se_block_28/activation_56/Relu", "op": "_FusedMatMul", "input": ["StatefulPartitionedCall/neural_network_2/mobile_net_v3_small_2/bottle_neck_28/se_block_28/global_average_pooling2d_30/Mean", "StatefulPartitionedCall/neural_network_2/mobile_net_v3_small_2/bottle_neck_28/se_block_28/dense_92/MatMul/ReadVariableOp", "StatefulPartitionedCall/neural_network_2/mobile_net_v3_small_2/bottle_neck_28/se_block_28/dense_92/BiasAdd/ReadVariableOp"], "device": "/device:CPU:0", "attr": {"fused_ops": {"list": {"s": ["Qmlhc0FkZA==", "UmVsdQ=="]}}, "T": {"type": "DT_FLOAT"}, "num_args": {"i": "1"}, "transpose_b": {"b": false}, "transpose_a": {"b": false}, "epsilon": {"f": 0.0}}}, {"name": "StatefulPartitionedCall/neural_network_2/mobile_net_v3_small_2/bottle_neck_28/se_block_28/dense_93/BiasAdd", "op": "_FusedMatMul", "input": ["StatefulPartitionedCall/neural_network_2/mobile_net_v3_small_2/bottle_neck_28/se_block_28/activation_56/Relu", "StatefulPartitionedCall/neural_network_2/mobile_net_v3_small_2/bottle_neck_28/se_block_28/dense_93/MatMul/ReadVariableOp", "StatefulPartitionedCall/neural_network_2/mobile_net_v3_small_2/bottle_neck_28/se_block_28/dense_93/BiasAdd/ReadVariableOp"], "device": "/device:CPU:0", "attr": {"num_args": {"i": "1"}, "transpose_b": {"b": false}, "transpose_a": {"b": false}, "epsilon": {"f": 0.0}, "fused_ops": {"list": {"s": ["Qmlhc0FkZA=="]}}, "T": {"type": "DT_FLOAT"}}}, {"name": "StatefulPartitionedCall/neural_network_2/mobile_net_v3_small_2/bottle_neck_28/se_block_28/add", "op": "AddV2", "input": ["StatefulPartitionedCall/neural_network_2/mobile_net_v3_small_2/bottle_neck_28/se_block_28/dense_93/BiasAdd", "StatefulPartitionedCall/neural_network_2/mobile_net_v3_small_2/bottle_neck_28/se_block_28/add/y"], "attr": {"T": {"type": "DT_FLOAT"}}}, {"name": "StatefulPartitionedCall/neural_network_2/mobile_net_v3_small_2/bottle_neck_28/se_block_28/Relu6", "op": "Relu6", "input": ["StatefulPartitionedCall/neural_network_2/mobile_net_v3_small_2/bottle_neck_28/se_block_28/add"], "attr": {"T": {"type": "DT_FLOAT"}}}, {"name": "StatefulPartitionedCall/neural_network_2/mobile_net_v3_small_2/bottle_neck_28/se_block_28/truediv", "op": "Mul", "input": ["StatefulPartitionedCall/neural_network_2/mobile_net_v3_small_2/bottle_neck_28/se_block_28/Relu6", "ConstantFolding/StatefulPartitionedCall/neural_network_2/mobile_net_v3_small_2/bottle_neck_28/se_block_28/truediv_recip"], "attr": {"T": {"type": "DT_FLOAT"}}}, {"name": "StatefulPartitionedCall/neural_network_2/mobile_net_v3_small_2/bottle_neck_28/se_block_28/ExpandDims", "op": "ExpandDims", "input": ["StatefulPartitionedCall/neural_network_2/mobile_net_v3_small_2/bottle_neck_28/se_block_28/truediv", "StatefulPartitionedCall/neural_network_2/mobile_net_v3_small_2/bottle_neck_28/se_block_28/ExpandDims/dim"], "attr": {"Tdim": {"type": "DT_INT32"}, "T": {"type": "DT_FLOAT"}}}, {"name": "StatefulPartitionedCall/neural_network_2/mobile_net_v3_small_2/bottle_neck_28/se_block_28/ExpandDims_1", "op": "ExpandDims", "input": ["StatefulPartitionedCall/neural_network_2/mobile_net_v3_small_2/bottle_neck_28/se_block_28/ExpandDims", "StatefulPartitionedCall/neural_network_2/mobile_net_v3_small_2/bottle_neck_28/se_block_28/ExpandDims_1/dim"], "attr": {"T": {"type": "DT_FLOAT"}, "Tdim": {"type": "DT_INT32"}}}, {"name": "StatefulPartitionedCall/neural_network_2/mobile_net_v3_small_2/bottle_neck_28/se_block_28/mul", "op": "Mul", "input": ["StatefulPartitionedCall/neural_network_2/mobile_net_v3_small_2/bottle_neck_28/mul_1", "StatefulPartitionedCall/neural_network_2/mobile_net_v3_small_2/bottle_neck_28/se_block_28/ExpandDims_1"], "attr": {"T": {"type": "DT_FLOAT"}}}, {"name": "StatefulPartitionedCall/neural_network_2/mobile_net_v3_small_2/bottle_neck_28/batch_normalization_93/FusedBatchNormV3", "op": "_FusedConv2D", "input": ["StatefulPartitionedCall/neural_network_2/mobile_net_v3_small_2/bottle_neck_28/se_block_28/mul", "StatefulPartitionedCall/neural_network_2/mobile_net_v3_small_2/bottle_neck_28/conv2d_66/Conv2D_weights", "StatefulPartitionedCall/neural_network_2/mobile_net_v3_small_2/bottle_neck_28/conv2d_66/Conv2D_bn_offset"], "device": "/device:CPU:0", "attr": {"strides": {"list": {"i": ["1", "1", "1", "1"]}}, "num_args": {"i": "1"}, "data_format": {"s": "TkhXQw=="}, "padding": {"s": "U0FNRQ=="}, "use_cudnn_on_gpu": {"b": true}, "dilations": {"list": {"i": ["1", "1", "1", "1"]}}, "epsilon": {"f": 0.0}, "T": {"type": "DT_FLOAT"}, "explicit_paddings": {"list": {}}, "fused_ops": {"list": {"s": ["Qmlhc0FkZA=="]}}}}, {"name": "StatefulPartitionedCall/neural_network_2/mobile_net_v3_small_2/bottle_neck_29/batch_normalization_94/FusedBatchNormV3", "op": "_FusedConv2D", "input": ["StatefulPartitionedCall/neural_network_2/mobile_net_v3_small_2/bottle_neck_28/batch_normalization_93/FusedBatchNormV3", "StatefulPartitionedCall/neural_network_2/mobile_net_v3_small_2/bottle_neck_29/conv2d_67/Conv2D_weights", "StatefulPartitionedCall/neural_network_2/mobile_net_v3_small_2/bottle_neck_29/conv2d_67/Conv2D_bn_offset"], "device": "/device:CPU:0", "attr": {"num_args": {"i": "1"}, "data_format": {"s": "TkhXQw=="}, "epsilon": {"f": 0.0}, "padding": {"s": "U0FNRQ=="}, "dilations": {"list": {"i": ["1", "1", "1", "1"]}}, "strides": {"list": {"i": ["1", "1", "1", "1"]}}, "explicit_paddings": {"list": {}}, "use_cudnn_on_gpu": {"b": true}, "fused_ops": {"list": {"s": ["Qmlhc0FkZA=="]}}, "T": {"type": "DT_FLOAT"}}}, {"name": "StatefulPartitionedCall/neural_network_2/mobile_net_v3_small_2/bottle_neck_29/truediv", "op": "Mul", "input": ["ConstantFolding/StatefulPartitionedCall/neural_network_2/mobile_net_v3_small_2/bottle_neck_29/truediv_recip", "StatefulPartitionedCall/neural_network_2/mobile_net_v3_small_2/bottle_neck_29/batch_normalization_94/FusedBatchNormV3"], "attr": {"T": {"type": "DT_FLOAT"}, "_grappler_ArithmeticOptimizer_MinimizeBroadcasts": {"b": true}}}, {"name": "StatefulPartitionedCall/neural_network_2/mobile_net_v3_small_2/bottle_neck_29/add", "op": "AddV2", "input": ["StatefulPartitionedCall/neural_network_2/mobile_net_v3_small_2/bottle_neck_29/batch_normalization_94/FusedBatchNormV3", "StatefulPartitionedCall/neural_network_2/mobile_net_v3_small_2/bottle_neck_29/add/y"], "attr": {"T": {"type": "DT_FLOAT"}}}, {"name": "StatefulPartitionedCall/neural_network_2/mobile_net_v3_small_2/bottle_neck_29/Relu6", "op": "Relu6", "input": ["StatefulPartitionedCall/neural_network_2/mobile_net_v3_small_2/bottle_neck_29/add"], "attr": {"T": {"type": "DT_FLOAT"}}}, {"name": "StatefulPartitionedCall/neural_network_2/mobile_net_v3_small_2/bottle_neck_29/mul", "op": "Mul", "input": ["StatefulPartitionedCall/neural_network_2/mobile_net_v3_small_2/bottle_neck_29/truediv", "StatefulPartitionedCall/neural_network_2/mobile_net_v3_small_2/bottle_neck_29/Relu6"], "attr": {"_grappler_ArithmeticOptimizer_MinimizeBroadcasts": {"b": true}, "T": {"type": "DT_FLOAT"}}}, {"name": "StatefulPartitionedCall/neural_network_2/mobile_net_v3_small_2/bottle_neck_29/depthwise_conv2d_29/depthwise", "op": "FusedDepthwiseConv2dNative", "input": ["StatefulPartitionedCall/neural_network_2/mobile_net_v3_small_2/bottle_neck_29/mul", "StatefulPartitionedCall/neural_network_2/mobile_net_v3_small_2/bottle_neck_29/depthwise_conv2d_29/depthwise_weights", "StatefulPartitionedCall/neural_network_2/mobile_net_v3_small_2/bottle_neck_29/depthwise_conv2d_29/depthwise_bn_offset"], "attr": {"fused_ops": {"list": {"s": ["Qmlhc0FkZA=="]}}, "num_args": {"i": "1"}, "data_format": {"s": "TkhXQw=="}, "explicit_paddings": {"list": {}}, "dilations": {"list": {"i": ["1", "1", "1", "1"]}}, "strides": {"list": {"i": ["1", "1", "1", "1"]}}, "T": {"type": "DT_FLOAT"}, "padding": {"s": "U0FNRQ=="}}}, {"name": "StatefulPartitionedCall/neural_network_2/mobile_net_v3_small_2/bottle_neck_29/truediv_1", "op": "Mul", "input": ["ConstantFolding/StatefulPartitionedCall/neural_network_2/mobile_net_v3_small_2/bottle_neck_29/truediv_1_recip", "StatefulPartitionedCall/neural_network_2/mobile_net_v3_small_2/bottle_neck_29/depthwise_conv2d_29/depthwise"], "attr": {"_grappler_ArithmeticOptimizer_MinimizeBroadcasts": {"b": true}, "T": {"type": "DT_FLOAT"}}}, {"name": "StatefulPartitionedCall/neural_network_2/mobile_net_v3_small_2/bottle_neck_29/add_1", "op": "AddV2", "input": ["StatefulPartitionedCall/neural_network_2/mobile_net_v3_small_2/bottle_neck_29/depthwise_conv2d_29/depthwise", "StatefulPartitionedCall/neural_network_2/mobile_net_v3_small_2/bottle_neck_29/add_1/y"], "attr": {"T": {"type": "DT_FLOAT"}}}, {"name": "StatefulPartitionedCall/neural_network_2/mobile_net_v3_small_2/bottle_neck_29/Relu6_1", "op": "Relu6", "input": ["StatefulPartitionedCall/neural_network_2/mobile_net_v3_small_2/bottle_neck_29/add_1"], "attr": {"T": {"type": "DT_FLOAT"}}}, {"name": "StatefulPartitionedCall/neural_network_2/mobile_net_v3_small_2/bottle_neck_29/mul_1", "op": "Mul", "input": ["StatefulPartitionedCall/neural_network_2/mobile_net_v3_small_2/bottle_neck_29/truediv_1", "StatefulPartitionedCall/neural_network_2/mobile_net_v3_small_2/bottle_neck_29/Relu6_1"], "attr": {"T": {"type": "DT_FLOAT"}, "_grappler_ArithmeticOptimizer_MinimizeBroadcasts": {"b": true}}}, {"name": "StatefulPartitionedCall/neural_network_2/mobile_net_v3_small_2/bottle_neck_29/se_block_29/global_average_pooling2d_31/Mean", "op": "Mean", "input": ["StatefulPartitionedCall/neural_network_2/mobile_net_v3_small_2/bottle_neck_29/mul_1", "StatefulPartitionedCall/neural_network_2/mobile_net_v3_small_2/bottle_neck_29/se_block_29/global_average_pooling2d_31/Mean/reduction_indices"], "attr": {"T": {"type": "DT_FLOAT"}, "Tidx": {"type": "DT_INT32"}, "keep_dims": {"b": false}}}, {"name": "StatefulPartitionedCall/neural_network_2/mobile_net_v3_small_2/bottle_neck_29/se_block_29/activation_58/Relu", "op": "_FusedMatMul", "input": ["StatefulPartitionedCall/neural_network_2/mobile_net_v3_small_2/bottle_neck_29/se_block_29/global_average_pooling2d_31/Mean", "StatefulPartitionedCall/neural_network_2/mobile_net_v3_small_2/bottle_neck_29/se_block_29/dense_94/MatMul/ReadVariableOp", "StatefulPartitionedCall/neural_network_2/mobile_net_v3_small_2/bottle_neck_29/se_block_29/dense_94/BiasAdd/ReadVariableOp"], "device": "/device:CPU:0", "attr": {"transpose_a": {"b": false}, "T": {"type": "DT_FLOAT"}, "num_args": {"i": "1"}, "epsilon": {"f": 0.0}, "transpose_b": {"b": false}, "fused_ops": {"list": {"s": ["Qmlhc0FkZA==", "UmVsdQ=="]}}}}, {"name": "StatefulPartitionedCall/neural_network_2/mobile_net_v3_small_2/bottle_neck_29/se_block_29/dense_95/BiasAdd", "op": "_FusedMatMul", "input": ["StatefulPartitionedCall/neural_network_2/mobile_net_v3_small_2/bottle_neck_29/se_block_29/activation_58/Relu", "StatefulPartitionedCall/neural_network_2/mobile_net_v3_small_2/bottle_neck_29/se_block_29/dense_95/MatMul/ReadVariableOp", "StatefulPartitionedCall/neural_network_2/mobile_net_v3_small_2/bottle_neck_29/se_block_29/dense_95/BiasAdd/ReadVariableOp"], "device": "/device:CPU:0", "attr": {"epsilon": {"f": 0.0}, "transpose_a": {"b": false}, "T": {"type": "DT_FLOAT"}, "num_args": {"i": "1"}, "transpose_b": {"b": false}, "fused_ops": {"list": {"s": ["Qmlhc0FkZA=="]}}}}, {"name": "StatefulPartitionedCall/neural_network_2/mobile_net_v3_small_2/bottle_neck_29/se_block_29/add", "op": "AddV2", "input": ["StatefulPartitionedCall/neural_network_2/mobile_net_v3_small_2/bottle_neck_29/se_block_29/dense_95/BiasAdd", "StatefulPartitionedCall/neural_network_2/mobile_net_v3_small_2/bottle_neck_29/se_block_29/add/y"], "attr": {"T": {"type": "DT_FLOAT"}}}, {"name": "StatefulPartitionedCall/neural_network_2/mobile_net_v3_small_2/bottle_neck_29/se_block_29/Relu6", "op": "Relu6", "input": ["StatefulPartitionedCall/neural_network_2/mobile_net_v3_small_2/bottle_neck_29/se_block_29/add"], "attr": {"T": {"type": "DT_FLOAT"}}}, {"name": "StatefulPartitionedCall/neural_network_2/mobile_net_v3_small_2/bottle_neck_29/se_block_29/truediv", "op": "Mul", "input": ["StatefulPartitionedCall/neural_network_2/mobile_net_v3_small_2/bottle_neck_29/se_block_29/Relu6", "ConstantFolding/StatefulPartitionedCall/neural_network_2/mobile_net_v3_small_2/bottle_neck_29/se_block_29/truediv_recip"], "attr": {"T": {"type": "DT_FLOAT"}}}, {"name": "StatefulPartitionedCall/neural_network_2/mobile_net_v3_small_2/bottle_neck_29/se_block_29/ExpandDims", "op": "ExpandDims", "input": ["StatefulPartitionedCall/neural_network_2/mobile_net_v3_small_2/bottle_neck_29/se_block_29/truediv", "StatefulPartitionedCall/neural_network_2/mobile_net_v3_small_2/bottle_neck_29/se_block_29/ExpandDims/dim"], "attr": {"T": {"type": "DT_FLOAT"}, "Tdim": {"type": "DT_INT32"}}}, {"name": "StatefulPartitionedCall/neural_network_2/mobile_net_v3_small_2/bottle_neck_29/se_block_29/ExpandDims_1", "op": "ExpandDims", "input": ["StatefulPartitionedCall/neural_network_2/mobile_net_v3_small_2/bottle_neck_29/se_block_29/ExpandDims", "StatefulPartitionedCall/neural_network_2/mobile_net_v3_small_2/bottle_neck_29/se_block_29/ExpandDims_1/dim"], "attr": {"T": {"type": "DT_FLOAT"}, "Tdim": {"type": "DT_INT32"}}}, {"name": "StatefulPartitionedCall/neural_network_2/mobile_net_v3_small_2/bottle_neck_29/se_block_29/mul", "op": "Mul", "input": ["StatefulPartitionedCall/neural_network_2/mobile_net_v3_small_2/bottle_neck_29/mul_1", "StatefulPartitionedCall/neural_network_2/mobile_net_v3_small_2/bottle_neck_29/se_block_29/ExpandDims_1"], "attr": {"T": {"type": "DT_FLOAT"}}}, {"name": "StatefulPartitionedCall/neural_network_2/mobile_net_v3_small_2/bottle_neck_29/batch_normalization_96/FusedBatchNormV3", "op": "_FusedConv2D", "input": ["StatefulPartitionedCall/neural_network_2/mobile_net_v3_small_2/bottle_neck_29/se_block_29/mul", "StatefulPartitionedCall/neural_network_2/mobile_net_v3_small_2/bottle_neck_29/conv2d_68/Conv2D_weights", "StatefulPartitionedCall/neural_network_2/mobile_net_v3_small_2/bottle_neck_29/conv2d_68/Conv2D_bn_offset"], "device": "/device:CPU:0", "attr": {"strides": {"list": {"i": ["1", "1", "1", "1"]}}, "epsilon": {"f": 0.0}, "dilations": {"list": {"i": ["1", "1", "1", "1"]}}, "use_cudnn_on_gpu": {"b": true}, "data_format": {"s": "TkhXQw=="}, "num_args": {"i": "1"}, "fused_ops": {"list": {"s": ["Qmlhc0FkZA=="]}}, "explicit_paddings": {"list": {}}, "padding": {"s": "U0FNRQ=="}, "T": {"type": "DT_FLOAT"}}}, {"name": "StatefulPartitionedCall/neural_network_2/mobile_net_v3_small_2/bottle_neck_29/add_3/add", "op": "AddV2", "input": ["StatefulPartitionedCall/neural_network_2/mobile_net_v3_small_2/bottle_neck_29/batch_normalization_96/FusedBatchNormV3", "StatefulPartitionedCall/neural_network_2/mobile_net_v3_small_2/bottle_neck_28/batch_normalization_93/FusedBatchNormV3"], "attr": {"T": {"type": "DT_FLOAT"}}}, {"name": "StatefulPartitionedCall/neural_network_2/mobile_net_v3_small_2/bottle_neck_30/batch_normalization_97/FusedBatchNormV3", "op": "_FusedConv2D", "input": ["StatefulPartitionedCall/neural_network_2/mobile_net_v3_small_2/bottle_neck_29/add_3/add", "StatefulPartitionedCall/neural_network_2/mobile_net_v3_small_2/bottle_neck_30/conv2d_69/Conv2D_weights", "StatefulPartitionedCall/neural_network_2/mobile_net_v3_small_2/bottle_neck_30/conv2d_69/Conv2D_bn_offset"], "device": "/device:CPU:0", "attr": {"strides": {"list": {"i": ["1", "1", "1", "1"]}}, "padding": {"s": "U0FNRQ=="}, "epsilon": {"f": 0.0}, "use_cudnn_on_gpu": {"b": true}, "dilations": {"list": {"i": ["1", "1", "1", "1"]}}, "num_args": {"i": "1"}, "data_format": {"s": "TkhXQw=="}, "explicit_paddings": {"list": {}}, "T": {"type": "DT_FLOAT"}, "fused_ops": {"list": {"s": ["Qmlhc0FkZA=="]}}}}, {"name": "StatefulPartitionedCall/neural_network_2/mobile_net_v3_small_2/bottle_neck_30/truediv", "op": "Mul", "input": ["ConstantFolding/StatefulPartitionedCall/neural_network_2/mobile_net_v3_small_2/bottle_neck_30/truediv_recip", "StatefulPartitionedCall/neural_network_2/mobile_net_v3_small_2/bottle_neck_30/batch_normalization_97/FusedBatchNormV3"], "attr": {"T": {"type": "DT_FLOAT"}, "_grappler_ArithmeticOptimizer_MinimizeBroadcasts": {"b": true}}}, {"name": "StatefulPartitionedCall/neural_network_2/mobile_net_v3_small_2/bottle_neck_30/add", "op": "AddV2", "input": ["StatefulPartitionedCall/neural_network_2/mobile_net_v3_small_2/bottle_neck_30/batch_normalization_97/FusedBatchNormV3", "StatefulPartitionedCall/neural_network_2/mobile_net_v3_small_2/bottle_neck_30/add/y"], "attr": {"T": {"type": "DT_FLOAT"}}}, {"name": "StatefulPartitionedCall/neural_network_2/mobile_net_v3_small_2/bottle_neck_30/Relu6", "op": "Relu6", "input": ["StatefulPartitionedCall/neural_network_2/mobile_net_v3_small_2/bottle_neck_30/add"], "attr": {"T": {"type": "DT_FLOAT"}}}, {"name": "StatefulPartitionedCall/neural_network_2/mobile_net_v3_small_2/bottle_neck_30/mul", "op": "Mul", "input": ["StatefulPartitionedCall/neural_network_2/mobile_net_v3_small_2/bottle_neck_30/truediv", "StatefulPartitionedCall/neural_network_2/mobile_net_v3_small_2/bottle_neck_30/Relu6"], "attr": {"T": {"type": "DT_FLOAT"}, "_grappler_ArithmeticOptimizer_MinimizeBroadcasts": {"b": true}}}, {"name": "StatefulPartitionedCall/neural_network_2/mobile_net_v3_small_2/bottle_neck_30/depthwise_conv2d_30/depthwise", "op": "FusedDepthwiseConv2dNative", "input": ["StatefulPartitionedCall/neural_network_2/mobile_net_v3_small_2/bottle_neck_30/mul", "StatefulPartitionedCall/neural_network_2/mobile_net_v3_small_2/bottle_neck_30/depthwise_conv2d_30/depthwise_weights", "StatefulPartitionedCall/neural_network_2/mobile_net_v3_small_2/bottle_neck_30/depthwise_conv2d_30/depthwise_bn_offset"], "attr": {"padding": {"s": "U0FNRQ=="}, "strides": {"list": {"i": ["1", "2", "2", "1"]}}, "dilations": {"list": {"i": ["1", "1", "1", "1"]}}, "data_format": {"s": "TkhXQw=="}, "num_args": {"i": "1"}, "fused_ops": {"list": {"s": ["Qmlhc0FkZA=="]}}, "explicit_paddings": {"list": {}}, "T": {"type": "DT_FLOAT"}}}, {"name": "StatefulPartitionedCall/neural_network_2/mobile_net_v3_small_2/bottle_neck_30/truediv_1", "op": "Mul", "input": ["ConstantFolding/StatefulPartitionedCall/neural_network_2/mobile_net_v3_small_2/bottle_neck_30/truediv_1_recip", "StatefulPartitionedCall/neural_network_2/mobile_net_v3_small_2/bottle_neck_30/depthwise_conv2d_30/depthwise"], "attr": {"T": {"type": "DT_FLOAT"}, "_grappler_ArithmeticOptimizer_MinimizeBroadcasts": {"b": true}}}, {"name": "StatefulPartitionedCall/neural_network_2/mobile_net_v3_small_2/bottle_neck_30/add_1", "op": "AddV2", "input": ["StatefulPartitionedCall/neural_network_2/mobile_net_v3_small_2/bottle_neck_30/depthwise_conv2d_30/depthwise", "StatefulPartitionedCall/neural_network_2/mobile_net_v3_small_2/bottle_neck_30/add_1/y"], "attr": {"T": {"type": "DT_FLOAT"}}}, {"name": "StatefulPartitionedCall/neural_network_2/mobile_net_v3_small_2/bottle_neck_30/Relu6_1", "op": "Relu6", "input": ["StatefulPartitionedCall/neural_network_2/mobile_net_v3_small_2/bottle_neck_30/add_1"], "attr": {"T": {"type": "DT_FLOAT"}}}, {"name": "StatefulPartitionedCall/neural_network_2/mobile_net_v3_small_2/bottle_neck_30/mul_1", "op": "Mul", "input": ["StatefulPartitionedCall/neural_network_2/mobile_net_v3_small_2/bottle_neck_30/truediv_1", "StatefulPartitionedCall/neural_network_2/mobile_net_v3_small_2/bottle_neck_30/Relu6_1"], "attr": {"T": {"type": "DT_FLOAT"}, "_grappler_ArithmeticOptimizer_MinimizeBroadcasts": {"b": true}}}, {"name": "StatefulPartitionedCall/neural_network_2/mobile_net_v3_small_2/bottle_neck_30/se_block_30/global_average_pooling2d_32/Mean", "op": "Mean", "input": ["StatefulPartitionedCall/neural_network_2/mobile_net_v3_small_2/bottle_neck_30/mul_1", "StatefulPartitionedCall/neural_network_2/mobile_net_v3_small_2/bottle_neck_30/se_block_30/global_average_pooling2d_32/Mean/reduction_indices"], "attr": {"keep_dims": {"b": false}, "Tidx": {"type": "DT_INT32"}, "T": {"type": "DT_FLOAT"}}}, {"name": "StatefulPartitionedCall/neural_network_2/mobile_net_v3_small_2/bottle_neck_30/se_block_30/activation_60/Relu", "op": "_FusedMatMul", "input": ["StatefulPartitionedCall/neural_network_2/mobile_net_v3_small_2/bottle_neck_30/se_block_30/global_average_pooling2d_32/Mean", "StatefulPartitionedCall/neural_network_2/mobile_net_v3_small_2/bottle_neck_30/se_block_30/dense_96/MatMul/ReadVariableOp", "StatefulPartitionedCall/neural_network_2/mobile_net_v3_small_2/bottle_neck_30/se_block_30/dense_96/BiasAdd/ReadVariableOp"], "device": "/device:CPU:0", "attr": {"num_args": {"i": "1"}, "T": {"type": "DT_FLOAT"}, "epsilon": {"f": 0.0}, "transpose_b": {"b": false}, "fused_ops": {"list": {"s": ["Qmlhc0FkZA==", "UmVsdQ=="]}}, "transpose_a": {"b": false}}}, {"name": "StatefulPartitionedCall/neural_network_2/mobile_net_v3_small_2/bottle_neck_30/se_block_30/dense_97/BiasAdd", "op": "_FusedMatMul", "input": ["StatefulPartitionedCall/neural_network_2/mobile_net_v3_small_2/bottle_neck_30/se_block_30/activation_60/Relu", "StatefulPartitionedCall/neural_network_2/mobile_net_v3_small_2/bottle_neck_30/se_block_30/dense_97/MatMul/ReadVariableOp", "StatefulPartitionedCall/neural_network_2/mobile_net_v3_small_2/bottle_neck_30/se_block_30/dense_97/BiasAdd/ReadVariableOp"], "device": "/device:CPU:0", "attr": {"transpose_a": {"b": false}, "epsilon": {"f": 0.0}, "fused_ops": {"list": {"s": ["Qmlhc0FkZA=="]}}, "T": {"type": "DT_FLOAT"}, "transpose_b": {"b": false}, "num_args": {"i": "1"}}}, {"name": "StatefulPartitionedCall/neural_network_2/mobile_net_v3_small_2/bottle_neck_30/se_block_30/add", "op": "AddV2", "input": ["StatefulPartitionedCall/neural_network_2/mobile_net_v3_small_2/bottle_neck_30/se_block_30/dense_97/BiasAdd", "StatefulPartitionedCall/neural_network_2/mobile_net_v3_small_2/bottle_neck_30/se_block_30/add/y"], "attr": {"T": {"type": "DT_FLOAT"}}}, {"name": "StatefulPartitionedCall/neural_network_2/mobile_net_v3_small_2/bottle_neck_30/se_block_30/Relu6", "op": "Relu6", "input": ["StatefulPartitionedCall/neural_network_2/mobile_net_v3_small_2/bottle_neck_30/se_block_30/add"], "attr": {"T": {"type": "DT_FLOAT"}}}, {"name": "StatefulPartitionedCall/neural_network_2/mobile_net_v3_small_2/bottle_neck_30/se_block_30/truediv", "op": "Mul", "input": ["StatefulPartitionedCall/neural_network_2/mobile_net_v3_small_2/bottle_neck_30/se_block_30/Relu6", "ConstantFolding/StatefulPartitionedCall/neural_network_2/mobile_net_v3_small_2/bottle_neck_30/se_block_30/truediv_recip"], "attr": {"T": {"type": "DT_FLOAT"}}}, {"name": "StatefulPartitionedCall/neural_network_2/mobile_net_v3_small_2/bottle_neck_30/se_block_30/ExpandDims", "op": "ExpandDims", "input": ["StatefulPartitionedCall/neural_network_2/mobile_net_v3_small_2/bottle_neck_30/se_block_30/truediv", "StatefulPartitionedCall/neural_network_2/mobile_net_v3_small_2/bottle_neck_30/se_block_30/ExpandDims/dim"], "attr": {"Tdim": {"type": "DT_INT32"}, "T": {"type": "DT_FLOAT"}}}, {"name": "StatefulPartitionedCall/neural_network_2/mobile_net_v3_small_2/bottle_neck_30/se_block_30/ExpandDims_1", "op": "ExpandDims", "input": ["StatefulPartitionedCall/neural_network_2/mobile_net_v3_small_2/bottle_neck_30/se_block_30/ExpandDims", "StatefulPartitionedCall/neural_network_2/mobile_net_v3_small_2/bottle_neck_30/se_block_30/ExpandDims_1/dim"], "attr": {"T": {"type": "DT_FLOAT"}, "Tdim": {"type": "DT_INT32"}}}, {"name": "StatefulPartitionedCall/neural_network_2/mobile_net_v3_small_2/bottle_neck_30/se_block_30/mul", "op": "Mul", "input": ["StatefulPartitionedCall/neural_network_2/mobile_net_v3_small_2/bottle_neck_30/mul_1", "StatefulPartitionedCall/neural_network_2/mobile_net_v3_small_2/bottle_neck_30/se_block_30/ExpandDims_1"], "attr": {"T": {"type": "DT_FLOAT"}}}, {"name": "StatefulPartitionedCall/neural_network_2/mobile_net_v3_small_2/bottle_neck_30/batch_normalization_99/FusedBatchNormV3", "op": "_FusedConv2D", "input": ["StatefulPartitionedCall/neural_network_2/mobile_net_v3_small_2/bottle_neck_30/se_block_30/mul", "StatefulPartitionedCall/neural_network_2/mobile_net_v3_small_2/bottle_neck_30/conv2d_70/Conv2D_weights", "StatefulPartitionedCall/neural_network_2/mobile_net_v3_small_2/bottle_neck_30/conv2d_70/Conv2D_bn_offset"], "device": "/device:CPU:0", "attr": {"T": {"type": "DT_FLOAT"}, "strides": {"list": {"i": ["1", "1", "1", "1"]}}, "use_cudnn_on_gpu": {"b": true}, "data_format": {"s": "TkhXQw=="}, "epsilon": {"f": 0.0}, "num_args": {"i": "1"}, "fused_ops": {"list": {"s": ["Qmlhc0FkZA=="]}}, "explicit_paddings": {"list": {}}, "dilations": {"list": {"i": ["1", "1", "1", "1"]}}, "padding": {"s": "U0FNRQ=="}}}, {"name": "StatefulPartitionedCall/neural_network_2/mobile_net_v3_small_2/bottle_neck_31/batch_normalization_100/FusedBatchNormV3", "op": "_FusedConv2D", "input": ["StatefulPartitionedCall/neural_network_2/mobile_net_v3_small_2/bottle_neck_30/batch_normalization_99/FusedBatchNormV3", "StatefulPartitionedCall/neural_network_2/mobile_net_v3_small_2/bottle_neck_31/conv2d_71/Conv2D_weights", "StatefulPartitionedCall/neural_network_2/mobile_net_v3_small_2/bottle_neck_31/conv2d_71/Conv2D_bn_offset"], "device": "/device:CPU:0", "attr": {"strides": {"list": {"i": ["1", "1", "1", "1"]}}, "num_args": {"i": "1"}, "data_format": {"s": "TkhXQw=="}, "T": {"type": "DT_FLOAT"}, "explicit_paddings": {"list": {}}, "padding": {"s": "U0FNRQ=="}, "epsilon": {"f": 0.0}, "use_cudnn_on_gpu": {"b": true}, "fused_ops": {"list": {"s": ["Qmlhc0FkZA=="]}}, "dilations": {"list": {"i": ["1", "1", "1", "1"]}}}}, {"name": "StatefulPartitionedCall/neural_network_2/mobile_net_v3_small_2/bottle_neck_31/truediv", "op": "Mul", "input": ["ConstantFolding/StatefulPartitionedCall/neural_network_2/mobile_net_v3_small_2/bottle_neck_31/truediv_recip", "StatefulPartitionedCall/neural_network_2/mobile_net_v3_small_2/bottle_neck_31/batch_normalization_100/FusedBatchNormV3"], "attr": {"T": {"type": "DT_FLOAT"}, "_grappler_ArithmeticOptimizer_MinimizeBroadcasts": {"b": true}}}, {"name": "StatefulPartitionedCall/neural_network_2/mobile_net_v3_small_2/bottle_neck_31/add", "op": "AddV2", "input": ["StatefulPartitionedCall/neural_network_2/mobile_net_v3_small_2/bottle_neck_31/batch_normalization_100/FusedBatchNormV3", "StatefulPartitionedCall/neural_network_2/mobile_net_v3_small_2/bottle_neck_31/add/y"], "attr": {"T": {"type": "DT_FLOAT"}}}, {"name": "StatefulPartitionedCall/neural_network_2/mobile_net_v3_small_2/bottle_neck_31/Relu6", "op": "Relu6", "input": ["StatefulPartitionedCall/neural_network_2/mobile_net_v3_small_2/bottle_neck_31/add"], "attr": {"T": {"type": "DT_FLOAT"}}}, {"name": "StatefulPartitionedCall/neural_network_2/mobile_net_v3_small_2/bottle_neck_31/mul", "op": "Mul", "input": ["StatefulPartitionedCall/neural_network_2/mobile_net_v3_small_2/bottle_neck_31/truediv", "StatefulPartitionedCall/neural_network_2/mobile_net_v3_small_2/bottle_neck_31/Relu6"], "attr": {"T": {"type": "DT_FLOAT"}, "_grappler_ArithmeticOptimizer_MinimizeBroadcasts": {"b": true}}}, {"name": "StatefulPartitionedCall/neural_network_2/mobile_net_v3_small_2/bottle_neck_31/depthwise_conv2d_31/depthwise", "op": "FusedDepthwiseConv2dNative", "input": ["StatefulPartitionedCall/neural_network_2/mobile_net_v3_small_2/bottle_neck_31/mul", "StatefulPartitionedCall/neural_network_2/mobile_net_v3_small_2/bottle_neck_31/depthwise_conv2d_31/depthwise_weights", "StatefulPartitionedCall/neural_network_2/mobile_net_v3_small_2/bottle_neck_31/depthwise_conv2d_31/depthwise_bn_offset"], "attr": {"strides": {"list": {"i": ["1", "1", "1", "1"]}}, "num_args": {"i": "1"}, "T": {"type": "DT_FLOAT"}, "explicit_paddings": {"list": {}}, "padding": {"s": "U0FNRQ=="}, "fused_ops": {"list": {"s": ["Qmlhc0FkZA=="]}}, "dilations": {"list": {"i": ["1", "1", "1", "1"]}}, "data_format": {"s": "TkhXQw=="}}}, {"name": "StatefulPartitionedCall/neural_network_2/mobile_net_v3_small_2/bottle_neck_31/truediv_1", "op": "Mul", "input": ["ConstantFolding/StatefulPartitionedCall/neural_network_2/mobile_net_v3_small_2/bottle_neck_31/truediv_1_recip", "StatefulPartitionedCall/neural_network_2/mobile_net_v3_small_2/bottle_neck_31/depthwise_conv2d_31/depthwise"], "attr": {"T": {"type": "DT_FLOAT"}, "_grappler_ArithmeticOptimizer_MinimizeBroadcasts": {"b": true}}}, {"name": "StatefulPartitionedCall/neural_network_2/mobile_net_v3_small_2/bottle_neck_31/add_1", "op": "AddV2", "input": ["StatefulPartitionedCall/neural_network_2/mobile_net_v3_small_2/bottle_neck_31/depthwise_conv2d_31/depthwise", "StatefulPartitionedCall/neural_network_2/mobile_net_v3_small_2/bottle_neck_31/add_1/y"], "attr": {"T": {"type": "DT_FLOAT"}}}, {"name": "StatefulPartitionedCall/neural_network_2/mobile_net_v3_small_2/bottle_neck_31/Relu6_1", "op": "Relu6", "input": ["StatefulPartitionedCall/neural_network_2/mobile_net_v3_small_2/bottle_neck_31/add_1"], "attr": {"T": {"type": "DT_FLOAT"}}}, {"name": "StatefulPartitionedCall/neural_network_2/mobile_net_v3_small_2/bottle_neck_31/mul_1", "op": "Mul", "input": ["StatefulPartitionedCall/neural_network_2/mobile_net_v3_small_2/bottle_neck_31/truediv_1", "StatefulPartitionedCall/neural_network_2/mobile_net_v3_small_2/bottle_neck_31/Relu6_1"], "attr": {"T": {"type": "DT_FLOAT"}, "_grappler_ArithmeticOptimizer_MinimizeBroadcasts": {"b": true}}}, {"name": "StatefulPartitionedCall/neural_network_2/mobile_net_v3_small_2/bottle_neck_31/se_block_31/global_average_pooling2d_33/Mean", "op": "Mean", "input": ["StatefulPartitionedCall/neural_network_2/mobile_net_v3_small_2/bottle_neck_31/mul_1", "StatefulPartitionedCall/neural_network_2/mobile_net_v3_small_2/bottle_neck_31/se_block_31/global_average_pooling2d_33/Mean/reduction_indices"], "attr": {"T": {"type": "DT_FLOAT"}, "Tidx": {"type": "DT_INT32"}, "keep_dims": {"b": false}}}, {"name": "StatefulPartitionedCall/neural_network_2/mobile_net_v3_small_2/bottle_neck_31/se_block_31/activation_62/Relu", "op": "_FusedMatMul", "input": ["StatefulPartitionedCall/neural_network_2/mobile_net_v3_small_2/bottle_neck_31/se_block_31/global_average_pooling2d_33/Mean", "StatefulPartitionedCall/neural_network_2/mobile_net_v3_small_2/bottle_neck_31/se_block_31/dense_98/MatMul/ReadVariableOp", "StatefulPartitionedCall/neural_network_2/mobile_net_v3_small_2/bottle_neck_31/se_block_31/dense_98/BiasAdd/ReadVariableOp"], "device": "/device:CPU:0", "attr": {"transpose_b": {"b": false}, "fused_ops": {"list": {"s": ["Qmlhc0FkZA==", "UmVsdQ=="]}}, "T": {"type": "DT_FLOAT"}, "transpose_a": {"b": false}, "num_args": {"i": "1"}, "epsilon": {"f": 0.0}}}, {"name": "StatefulPartitionedCall/neural_network_2/mobile_net_v3_small_2/bottle_neck_31/se_block_31/dense_99/BiasAdd", "op": "_FusedMatMul", "input": ["StatefulPartitionedCall/neural_network_2/mobile_net_v3_small_2/bottle_neck_31/se_block_31/activation_62/Relu", "StatefulPartitionedCall/neural_network_2/mobile_net_v3_small_2/bottle_neck_31/se_block_31/dense_99/MatMul/ReadVariableOp", "StatefulPartitionedCall/neural_network_2/mobile_net_v3_small_2/bottle_neck_31/se_block_31/dense_99/BiasAdd/ReadVariableOp"], "device": "/device:CPU:0", "attr": {"transpose_a": {"b": false}, "T": {"type": "DT_FLOAT"}, "fused_ops": {"list": {"s": ["Qmlhc0FkZA=="]}}, "num_args": {"i": "1"}, "epsilon": {"f": 0.0}, "transpose_b": {"b": false}}}, {"name": "StatefulPartitionedCall/neural_network_2/mobile_net_v3_small_2/bottle_neck_31/se_block_31/add", "op": "AddV2", "input": ["StatefulPartitionedCall/neural_network_2/mobile_net_v3_small_2/bottle_neck_31/se_block_31/dense_99/BiasAdd", "StatefulPartitionedCall/neural_network_2/mobile_net_v3_small_2/bottle_neck_31/se_block_31/add/y"], "attr": {"T": {"type": "DT_FLOAT"}}}, {"name": "StatefulPartitionedCall/neural_network_2/mobile_net_v3_small_2/bottle_neck_31/se_block_31/Relu6", "op": "Relu6", "input": ["StatefulPartitionedCall/neural_network_2/mobile_net_v3_small_2/bottle_neck_31/se_block_31/add"], "attr": {"T": {"type": "DT_FLOAT"}}}, {"name": "StatefulPartitionedCall/neural_network_2/mobile_net_v3_small_2/bottle_neck_31/se_block_31/truediv", "op": "Mul", "input": ["StatefulPartitionedCall/neural_network_2/mobile_net_v3_small_2/bottle_neck_31/se_block_31/Relu6", "ConstantFolding/StatefulPartitionedCall/neural_network_2/mobile_net_v3_small_2/bottle_neck_31/se_block_31/truediv_recip"], "attr": {"T": {"type": "DT_FLOAT"}}}, {"name": "StatefulPartitionedCall/neural_network_2/mobile_net_v3_small_2/bottle_neck_31/se_block_31/ExpandDims", "op": "ExpandDims", "input": ["StatefulPartitionedCall/neural_network_2/mobile_net_v3_small_2/bottle_neck_31/se_block_31/truediv", "StatefulPartitionedCall/neural_network_2/mobile_net_v3_small_2/bottle_neck_31/se_block_31/ExpandDims/dim"], "attr": {"T": {"type": "DT_FLOAT"}, "Tdim": {"type": "DT_INT32"}}}, {"name": "StatefulPartitionedCall/neural_network_2/mobile_net_v3_small_2/bottle_neck_31/se_block_31/ExpandDims_1", "op": "ExpandDims", "input": ["StatefulPartitionedCall/neural_network_2/mobile_net_v3_small_2/bottle_neck_31/se_block_31/ExpandDims", "StatefulPartitionedCall/neural_network_2/mobile_net_v3_small_2/bottle_neck_31/se_block_31/ExpandDims_1/dim"], "attr": {"T": {"type": "DT_FLOAT"}, "Tdim": {"type": "DT_INT32"}}}, {"name": "StatefulPartitionedCall/neural_network_2/mobile_net_v3_small_2/bottle_neck_31/se_block_31/mul", "op": "Mul", "input": ["StatefulPartitionedCall/neural_network_2/mobile_net_v3_small_2/bottle_neck_31/mul_1", "StatefulPartitionedCall/neural_network_2/mobile_net_v3_small_2/bottle_neck_31/se_block_31/ExpandDims_1"], "attr": {"T": {"type": "DT_FLOAT"}}}, {"name": "StatefulPartitionedCall/neural_network_2/mobile_net_v3_small_2/bottle_neck_31/batch_normalization_102/FusedBatchNormV3", "op": "_FusedConv2D", "input": ["StatefulPartitionedCall/neural_network_2/mobile_net_v3_small_2/bottle_neck_31/se_block_31/mul", "StatefulPartitionedCall/neural_network_2/mobile_net_v3_small_2/bottle_neck_31/conv2d_72/Conv2D_weights", "StatefulPartitionedCall/neural_network_2/mobile_net_v3_small_2/bottle_neck_31/conv2d_72/Conv2D_bn_offset"], "device": "/device:CPU:0", "attr": {"epsilon": {"f": 0.0}, "use_cudnn_on_gpu": {"b"…
nedCall/neural_network_2/res_mlp_2/sequential_2/res_mlp_block_16/dense_115/BiasAdd/ReadVariableOp"], "device": "/device:CPU:0", "attr": {"num_args": {"i": "1"}, "transpose_b": {"b": false}, "fused_ops": {"list": {"s": ["Qmlhc0FkZA=="]}}, "epsilon": {"f": 0.0}, "T": {"type": "DT_FLOAT"}, "transpose_a": {"b": false}}}, {"name": "StatefulPartitionedCall/neural_network_2/res_mlp_2/sequential_2/res_mlp_block_16/dense_114/Relu", "op": "_FusedMatMul", "input": ["StatefulPartitionedCall/neural_network_2/res_mlp_2/sequential_2/res_mlp_block_16/dense_113/Relu", "StatefulPartitionedCall/neural_network_2/res_mlp_2/sequential_2/res_mlp_block_16/dense_114/MatMul/ReadVariableOp", "StatefulPartitionedCall/neural_network_2/res_mlp_2/sequential_2/res_mlp_block_16/dense_114/BiasAdd/ReadVariableOp"], "device": "/device:CPU:0", "attr": {"T": {"type": "DT_FLOAT"}, "transpose_a": {"b": false}, "epsilon": {"f": 0.0}, "num_args": {"i": "1"}, "transpose_b": {"b": false}, "fused_ops": {"list": {"s": ["Qmlhc0FkZA==", "UmVsdQ=="]}}}}, {"name": "StatefulPartitionedCall/neural_network_2/res_mlp_2/sequential_2/res_mlp_block_16/pow", "op": "Pow", "input": ["StatefulPartitionedCall/neural_network_2/res_mlp_2/sequential_2/res_mlp_block_16/dense_115/BiasAdd", "StatefulPartitionedCall/neural_network_2/res_mlp_2/sequential_2/res_mlp_block_16/pow/y"], "attr": {"T": {"type": "DT_FLOAT"}}}, {"name": "StatefulPartitionedCall/neural_network_2/res_mlp_2/sequential_2/res_mlp_block_16/mul", "op": "Mul", "input": ["StatefulPartitionedCall/neural_network_2/res_mlp_2/sequential_2/res_mlp_block_16/mul/x", "StatefulPartitionedCall/neural_network_2/res_mlp_2/sequential_2/res_mlp_block_16/dense_115/BiasAdd"], "attr": {"_grappler_ArithmeticOptimizer_MinimizeBroadcasts": {"b": true}, "T": {"type": "DT_FLOAT"}}}, {"name": "StatefulPartitionedCall/neural_network_2/res_mlp_2/sequential_2/res_mlp_block_16/mul_1", "op": "Mul", "input": ["StatefulPartitionedCall/neural_network_2/res_mlp_2/sequential_2/res_mlp_block_16/mul_1/x", "StatefulPartitionedCall/neural_network_2/res_mlp_2/sequential_2/res_mlp_block_16/pow"], "attr": {"T": {"type": "DT_FLOAT"}}}, {"name": "StatefulPartitionedCall/neural_network_2/res_mlp_2/sequential_2/res_mlp_block_16/add", "op": "AddV2", "input": ["StatefulPartitionedCall/neural_network_2/res_mlp_2/sequential_2/res_mlp_block_16/dense_115/BiasAdd", "StatefulPartitionedCall/neural_network_2/res_mlp_2/sequential_2/res_mlp_block_16/mul_1"], "attr": {"T": {"type": "DT_FLOAT"}}}, {"name": "StatefulPartitionedCall/neural_network_2/res_mlp_2/sequential_2/res_mlp_block_16/mul_2", "op": "Mul", "input": ["StatefulPartitionedCall/neural_network_2/res_mlp_2/sequential_2/res_mlp_block_16/mul_2/x", "StatefulPartitionedCall/neural_network_2/res_mlp_2/sequential_2/res_mlp_block_16/add"], "attr": {"T": {"type": "DT_FLOAT"}}}, {"name": "StatefulPartitionedCall/neural_network_2/res_mlp_2/sequential_2/res_mlp_block_16/Tanh", "op": "Tanh", "input": ["StatefulPartitionedCall/neural_network_2/res_mlp_2/sequential_2/res_mlp_block_16/mul_2"], "attr": {"T": {"type": "DT_FLOAT"}}}, {"name": "StatefulPartitionedCall/neural_network_2/res_mlp_2/sequential_2/res_mlp_block_16/add_1", "op": "AddV2", "input": ["StatefulPartitionedCall/neural_network_2/res_mlp_2/sequential_2/res_mlp_block_16/add_1/x", "StatefulPartitionedCall/neural_network_2/res_mlp_2/sequential_2/res_mlp_block_16/Tanh"], "attr": {"T": {"type": "DT_FLOAT"}}}, {"name": "StatefulPartitionedCall/neural_network_2/res_mlp_2/sequential_2/res_mlp_block_16/mul_3", "op": "Mul", "input": ["StatefulPartitionedCall/neural_network_2/res_mlp_2/sequential_2/res_mlp_block_16/mul", "StatefulPartitionedCall/neural_network_2/res_mlp_2/sequential_2/res_mlp_block_16/add_1"], "attr": {"_grappler_ArithmeticOptimizer_MinimizeBroadcasts": {"b": true}, "T": {"type": "DT_FLOAT"}}}, {"name": "StatefulPartitionedCall/neural_network_2/res_mlp_2/sequential_2/res_mlp_block_16/dense_116/BiasAdd", "op": "_FusedMatMul", "input": ["StatefulPartitionedCall/neural_network_2/res_mlp_2/sequential_2/res_mlp_block_16/mul_3", "StatefulPartitionedCall/neural_network_2/res_mlp_2/sequential_2/res_mlp_block_16/dense_116/MatMul/ReadVariableOp", "StatefulPartitionedCall/neural_network_2/res_mlp_2/sequential_2/res_mlp_block_16/dense_116/BiasAdd/ReadVariableOp"], "device": "/device:CPU:0", "attr": {"epsilon": {"f": 0.0}, "transpose_b": {"b": false}, "num_args": {"i": "1"}, "fused_ops": {"list": {"s": ["Qmlhc0FkZA=="]}}, "T": {"type": "DT_FLOAT"}, "transpose_a": {"b": false}}}, {"name": "StatefulPartitionedCall/neural_network_2/res_mlp_2/sequential_2/res_mlp_block_16/mul_4", "op": "Mul", "input": ["StatefulPartitionedCall/neural_network_2/res_mlp_2/sequential_2/res_mlp_block_16/mul_4/x", "StatefulPartitionedCall/neural_network_2/res_mlp_2/sequential_2/res_mlp_block_16/dense_116/BiasAdd"], "attr": {"_grappler_ArithmeticOptimizer_MinimizeBroadcasts": {"b": true}, "T": {"type": "DT_FLOAT"}}}, {"name": "StatefulPartitionedCall/neural_network_2/res_mlp_2/sequential_2/res_mlp_block_16/pow_1", "op": "Pow", "input": ["StatefulPartitionedCall/neural_network_2/res_mlp_2/sequential_2/res_mlp_block_16/dense_116/BiasAdd", "StatefulPartitionedCall/neural_network_2/res_mlp_2/sequential_2/res_mlp_block_16/pow_1/y"], "attr": {"T": {"type": "DT_FLOAT"}}}, {"name": "StatefulPartitionedCall/neural_network_2/res_mlp_2/sequential_2/res_mlp_block_16/mul_5", "op": "Mul", "input": ["StatefulPartitionedCall/neural_network_2/res_mlp_2/sequential_2/res_mlp_block_16/mul_5/x", "StatefulPartitionedCall/neural_network_2/res_mlp_2/sequential_2/res_mlp_block_16/pow_1"], "attr": {"T": {"type": "DT_FLOAT"}}}, {"name": "StatefulPartitionedCall/neural_network_2/res_mlp_2/sequential_2/res_mlp_block_16/add_2", "op": "AddV2", "input": ["StatefulPartitionedCall/neural_network_2/res_mlp_2/sequential_2/res_mlp_block_16/dense_116/BiasAdd", "StatefulPartitionedCall/neural_network_2/res_mlp_2/sequential_2/res_mlp_block_16/mul_5"], "attr": {"T": {"type": "DT_FLOAT"}}}, {"name": "StatefulPartitionedCall/neural_network_2/res_mlp_2/sequential_2/res_mlp_block_16/mul_6", "op": "Mul", "input": ["StatefulPartitionedCall/neural_network_2/res_mlp_2/sequential_2/res_mlp_block_16/mul_6/x", "StatefulPartitionedCall/neural_network_2/res_mlp_2/sequential_2/res_mlp_block_16/add_2"], "attr": {"T": {"type": "DT_FLOAT"}}}, {"name": "StatefulPartitionedCall/neural_network_2/res_mlp_2/sequential_2/res_mlp_block_16/Tanh_1", "op": "Tanh", "input": ["StatefulPartitionedCall/neural_network_2/res_mlp_2/sequential_2/res_mlp_block_16/mul_6"], "attr": {"T": {"type": "DT_FLOAT"}}}, {"name": "StatefulPartitionedCall/neural_network_2/res_mlp_2/sequential_2/res_mlp_block_16/add_3", "op": "AddV2", "input": ["StatefulPartitionedCall/neural_network_2/res_mlp_2/sequential_2/res_mlp_block_16/add_3/x", "StatefulPartitionedCall/neural_network_2/res_mlp_2/sequential_2/res_mlp_block_16/Tanh_1"], "attr": {"T": {"type": "DT_FLOAT"}}}, {"name": "StatefulPartitionedCall/neural_network_2/res_mlp_2/sequential_2/res_mlp_block_16/mul_7", "op": "Mul", "input": ["StatefulPartitionedCall/neural_network_2/res_mlp_2/sequential_2/res_mlp_block_16/mul_4", "StatefulPartitionedCall/neural_network_2/res_mlp_2/sequential_2/res_mlp_block_16/add_3"], "attr": {"T": {"type": "DT_FLOAT"}, "_grappler_ArithmeticOptimizer_MinimizeBroadcasts": {"b": true}}}, {"name": "StatefulPartitionedCall/neural_network_2/res_mlp_2/sequential_2/res_mlp_block_16/add_4", "op": "AddV2", "input": ["StatefulPartitionedCall/neural_network_2/res_mlp_2/sequential_2/res_mlp_block_16/dense_114/Relu", "StatefulPartitionedCall/neural_network_2/res_mlp_2/sequential_2/res_mlp_block_16/mul_7"], "attr": {"T": {"type": "DT_FLOAT"}}}, {"name": "StatefulPartitionedCall/neural_network_2/res_mlp_2/sequential_2/res_mlp_block_17/dense_117/Relu", "op": "_FusedMatMul", "input": ["StatefulPartitionedCall/neural_network_2/res_mlp_2/sequential_2/res_mlp_block_16/add_4", "StatefulPartitionedCall/neural_network_2/res_mlp_2/sequential_2/res_mlp_block_17/dense_117/MatMul/ReadVariableOp", "StatefulPartitionedCall/neural_network_2/res_mlp_2/sequential_2/res_mlp_block_17/dense_117/BiasAdd/ReadVariableOp"], "device": "/device:CPU:0", "attr": {"num_args": {"i": "1"}, "epsilon": {"f": 0.0}, "transpose_a": {"b": false}, "T": {"type": "DT_FLOAT"}, "transpose_b": {"b": false}, "fused_ops": {"list": {"s": ["Qmlhc0FkZA==", "UmVsdQ=="]}}}}, {"name": "StatefulPartitionedCall/neural_network_2/res_mlp_2/sequential_2/res_mlp_block_17/dense_118/Relu", "op": "_FusedMatMul", "input": ["StatefulPartitionedCall/neural_network_2/res_mlp_2/sequential_2/res_mlp_block_17/dense_117/Relu", "StatefulPartitionedCall/neural_network_2/res_mlp_2/sequential_2/res_mlp_block_17/dense_118/MatMul/ReadVariableOp", "StatefulPartitionedCall/neural_network_2/res_mlp_2/sequential_2/res_mlp_block_17/dense_118/BiasAdd/ReadVariableOp"], "device": "/device:CPU:0", "attr": {"transpose_a": {"b": false}, "epsilon": {"f": 0.0}, "num_args": {"i": "1"}, "fused_ops": {"list": {"s": ["Qmlhc0FkZA==", "UmVsdQ=="]}}, "transpose_b": {"b": false}, "T": {"type": "DT_FLOAT"}}}, {"name": "StatefulPartitionedCall/neural_network_2/res_mlp_2/sequential_2/res_mlp_block_17/add", "op": "AddV2", "input": ["StatefulPartitionedCall/neural_network_2/res_mlp_2/sequential_2/res_mlp_block_17/dense_118/Relu", "StatefulPartitionedCall/neural_network_2/res_mlp_2/sequential_2/res_mlp_block_16/add_4"], "attr": {"T": {"type": "DT_FLOAT"}}}, {"name": "StatefulPartitionedCall/neural_network_2/res_mlp_2/dense_119/BiasAdd", "op": "_FusedMatMul", "input": ["StatefulPartitionedCall/neural_network_2/res_mlp_2/sequential_2/res_mlp_block_17/add", "StatefulPartitionedCall/neural_network_2/res_mlp_2/dense_119/MatMul/ReadVariableOp", "StatefulPartitionedCall/neural_network_2/res_mlp_2/dense_119/BiasAdd/ReadVariableOp"], "device": "/device:CPU:0", "attr": {"num_args": {"i": "1"}, "epsilon": {"f": 0.0}, "fused_ops": {"list": {"s": ["Qmlhc0FkZA=="]}}, "T": {"type": "DT_FLOAT"}, "transpose_a": {"b": false}, "transpose_b": {"b": false}}}, {"name": "StatefulPartitionedCall/neural_network_2/res_mlp_2/dense_119/Softmax", "op": "Softmax", "input": ["StatefulPartitionedCall/neural_network_2/res_mlp_2/dense_119/BiasAdd"], "attr": {"T": {"type": "DT_FLOAT"}}}, {"name": "Identity", "op": "Identity", "input": ["StatefulPartitionedCall/neural_network_2/res_mlp_2/dense_119/Softmax"], "attr": {"T": {"type": "DT_FLOAT"}}}], "library": {}, "versions": {"producer": 1087}}, "weightsManifest": [{"paths": ["group1-shard1of3.bin", "group1-shard2of3.bin", "group1-shard3of3.bin"], "weights": [{"name": "StatefulPartitionedCall/neural_network_2/res_mlp_2/sequential_2/res_mlp_block_17/dense_117/MatMul/ReadVariableOp", "shape": [128, 128], "dtype": "float32"}, {"name": "StatefulPartitionedCall/neural_network_2/res_mlp_2/sequential_2/res_mlp_block_17/dense_117/BiasAdd/ReadVariableOp", "shape": [128], "dtype": "float32"}, {"name": "StatefulPartitionedCall/neural_network_2/res_mlp_2/sequential_2/res_mlp_block_17/dense_118/MatMul/ReadVariableOp", "shape": [128, 128], "dtype": "float32"}, {"name": "StatefulPartitionedCall/neural_network_2/res_mlp_2/sequential_2/res_mlp_block_17/dense_118/BiasAdd/ReadVariableOp", "shape": [128], "dtype": "float32"}, {"name": "StatefulPartitionedCall/neural_network_2/res_mlp_2/sequential_2/res_mlp_block_16/dense_113/MatMul/ReadVariableOp", "shape": [64, 128], "dtype": "float32"}, {"name": "StatefulPartitionedCall/neural_network_2/res_mlp_2/sequential_2/res_mlp_block_16/dense_113/BiasAdd/ReadVariableOp", "shape": [128], "dtype": "float32"}, {"name": "StatefulPartitionedCall/neural_network_2/res_mlp_2/sequential_2/res_mlp_block_16/dense_114/MatMul/ReadVariableOp", "shape": [128, 128], "dtype": "float32"}, {"name": "StatefulPartitionedCall/neural_network_2/res_mlp_2/sequential_2/res_mlp_block_16/dense_114/BiasAdd/ReadVariableOp", "shape": [128], "dtype": "float32"}, {"name": "StatefulPartitionedCall/neural_network_2/res_mlp_2/sequential_2/res_mlp_block_16/mul_4/x", "shape": [], "dtype": "float32"}, {"name": "StatefulPartitionedCall/neural_network_2/res_mlp_2/sequential_2/res_mlp_block_16/add_3/x", "shape": [], "dtype": "float32"}, {"name": "StatefulPartitionedCall/neural_network_2/res_mlp_2/sequential_2/res_mlp_block_16/mul_6/x", "shape": [], "dtype": "float32"}, {"name": "StatefulPartitionedCall/neural_network_2/res_mlp_2/sequential_2/res_mlp_block_16/mul_5/x", "shape": [], "dtype": "float32"}, {"name": "StatefulPartitionedCall/neural_network_2/res_mlp_2/sequential_2/res_mlp_block_16/mul/x", "shape": [], "dtype": "float32"}, {"name": "StatefulPartitionedCall/neural_network_2/res_mlp_2/sequential_2/res_mlp_block_16/add_1/x", "shape": [], "dtype": "float32"}, {"name": "StatefulPartitionedCall/neural_network_2/res_mlp_2/sequential_2/res_mlp_block_16/mul_2/x", "shape": [], "dtype": "float32"}, {"name": "StatefulPartitionedCall/neural_network_2/res_mlp_2/sequential_2/res_mlp_block_16/mul_1/x", "shape": [], "dtype": "float32"}, {"name": "StatefulPartitionedCall/neural_network_2/res_mlp_2/sequential_2/res_mlp_block_15/dense_111/MatMul/ReadVariableOp", "shape": [64, 64], "dtype": "float32"}, {"name": "StatefulPartitionedCall/neural_network_2/res_mlp_2/sequential_2/res_mlp_block_15/dense_111/BiasAdd/ReadVariableOp", "shape": [64], "dtype": "float32"}, {"name": "StatefulPartitionedCall/neural_network_2/res_mlp_2/sequential_2/res_mlp_block_15/dense_112/MatMul/ReadVariableOp", "shape": [64, 64], "dtype": "float32"}, {"name": "StatefulPartitionedCall/neural_network_2/res_mlp_2/sequential_2/res_mlp_block_15/dense_112/BiasAdd/ReadVariableOp", "shape": [64], "dtype": "float32"}, {"name": "StatefulPartitionedCall/neural_network_2/res_mlp_2/sequential_2/res_mlp_block_14/dense_107/MatMul/ReadVariableOp", "shape": [32, 64], "dtype": "float32"}, {"name": "StatefulPartitionedCall/neural_network_2/res_mlp_2/sequential_2/res_mlp_block_14/dense_107/BiasAdd/ReadVariableOp", "shape": [64], "dtype": "float32"}, {"name": "StatefulPartitionedCall/neural_network_2/res_mlp_2/sequential_2/res_mlp_block_14/dense_108/MatMul/ReadVariableOp", "shape": [64, 64], "dtype": "float32"}, {"name": "StatefulPartitionedCall/neural_network_2/res_mlp_2/sequential_2/res_mlp_block_14/dense_108/BiasAdd/ReadVariableOp", "shape": [64], "dtype": "float32"}, {"name": "StatefulPartitionedCall/neural_network_2/res_mlp_2/sequential_2/res_mlp_block_14/mul_4/x", "shape": [], "dtype": "float32"}, {"name": "StatefulPartitionedCall/neural_network_2/res_mlp_2/sequential_2/res_mlp_block_14/add_3/x", "shape": [], "dtype": "float32"}, {"name": "StatefulPartitionedCall/neural_network_2/res_mlp_2/sequential_2/res_mlp_block_14/mul_6/x", "shape": [], "dtype": "float32"}, {"name": "StatefulPartitionedCall/neural_network_2/res_mlp_2/sequential_2/res_mlp_block_14/mul_5/x", "shape": [], "dtype": "float32"}, {"name": "StatefulPartitionedCall/neural_network_2/res_mlp_2/sequential_2/res_mlp_block_14/mul/x", "shape": [], "dtype": "float32"}, {"name": "StatefulPartitionedCall/neural_network_2/res_mlp_2/sequential_2/res_mlp_block_14/add_1/x", "shape": [], "dtype": "float32"}, {"name": "StatefulPartitionedCall/neural_network_2/res_mlp_2/sequential_2/res_mlp_block_14/mul_2/x", "shape": [], "dtype": "float32"}, {"name": "StatefulPartitionedCall/neural_network_2/res_mlp_2/sequential_2/res_mlp_block_14/mul_1/x", "shape": [], "dtype": "float32"}, {"name": "StatefulPartitionedCall/neural_network_2/res_mlp_2/sequential_2/res_mlp_block_13/dense_105/MatMul/ReadVariableOp", "shape": [32, 32], "dtype": "float32"}, {"name": "StatefulPartitionedCall/neural_network_2/res_mlp_2/sequential_2/res_mlp_block_13/dense_105/BiasAdd/ReadVariableOp", "shape": [32], "dtype": "float32"}, {"name": "StatefulPartitionedCall/neural_network_2/res_mlp_2/sequential_2/res_mlp_block_13/dense_106/MatMul/ReadVariableOp", "shape": [32, 32], "dtype": "float32"}, {"name": "StatefulPartitionedCall/neural_network_2/res_mlp_2/sequential_2/res_mlp_block_13/dense_106/BiasAdd/ReadVariableOp", "shape": [32], "dtype": "float32"}, {"name": "StatefulPartitionedCall/neural_network_2/res_mlp_2/sequential_2/res_mlp_block_12/dense_103/MatMul/ReadVariableOp", "shape": [32, 32], "dtype": "float32"}, {"name": "StatefulPartitionedCall/neural_network_2/res_mlp_2/sequential_2/res_mlp_block_12/dense_103/BiasAdd/ReadVariableOp", "shape": [32], "dtype": "float32"}, {"name": "StatefulPartitionedCall/neural_network_2/res_mlp_2/sequential_2/res_mlp_block_12/dense_104/MatMul/ReadVariableOp", "shape": [32, 32], "dtype": "float32"}, {"name": "StatefulPartitionedCall/neural_network_2/res_mlp_2/sequential_2/res_mlp_block_12/dense_104/BiasAdd/ReadVariableOp", "shape": [32], "dtype": "float32"}, {"name": "ConstantFolding/StatefulPartitionedCall/neural_network_2/mobile_net_v3_small_2/truediv_2_recip", "shape": [], "dtype": "float32"}, {"name": "ConstantFolding/StatefulPartitionedCall/neural_network_2/mobile_net_v3_small_2/truediv_1_recip", "shape": [], "dtype": "float32"}, {"name": "ConstantFolding/StatefulPartitionedCall/neural_network_2/mobile_net_v3_small_2/bottle_neck_32/truediv_1_recip", "shape": [], "dtype": "float32"}, {"name": "ConstantFolding/StatefulPartitionedCall/neural_network_2/mobile_net_v3_small_2/bottle_neck_32/truediv_recip", "shape": [], "dtype": "float32"}, {"name": "StatefulPartitionedCall/neural_network_2/mobile_net_v3_small_2/bottle_neck_32/add/y", "shape": [], "dtype": "float32"}, {"name": "StatefulPartitionedCall/neural_network_2/mobile_net_v3_small_2/bottle_neck_32/add_1/y", "shape": [], "dtype": "float32"}, {"name": "StatefulPartitionedCall/neural_network_2/mobile_net_v3_small_2/bottle_neck_32/se_block_32/global_average_pooling2d_34/Mean/reduction_indices", "shape": [2], "dtype": "int32"}, {"name": "StatefulPartitionedCall/neural_network_2/mobile_net_v3_small_2/bottle_neck_32/se_block_32/dense_100/MatMul/ReadVariableOp", "shape": [576, 36], "dtype": "float32"}, {"name": "StatefulPartitionedCall/neural_network_2/mobile_net_v3_small_2/bottle_neck_32/se_block_32/dense_100/BiasAdd/ReadVariableOp", "shape": [36], "dtype": "float32"}, {"name": "StatefulPartitionedCall/neural_network_2/mobile_net_v3_small_2/bottle_neck_32/se_block_32/dense_101/MatMul/ReadVariableOp", "shape": [36, 576], "dtype": "float32"}, {"name": "StatefulPartitionedCall/neural_network_2/mobile_net_v3_small_2/bottle_neck_32/se_block_32/dense_101/BiasAdd/ReadVariableOp", "shape": [576], "dtype": "float32"}, {"name": "StatefulPartitionedCall/neural_network_2/mobile_net_v3_small_2/bottle_neck_32/se_block_32/add/y", "shape": [], "dtype": "float32"}, {"name": "ConstantFolding/StatefulPartitionedCall/neural_network_2/mobile_net_v3_small_2/bottle_neck_32/se_block_32/truediv_recip", "shape": [], "dtype": "float32"}, {"name": "StatefulPartitionedCall/neural_network_2/mobile_net_v3_small_2/bottle_neck_32/se_block_32/ExpandDims/dim", "shape": [], "dtype": "int32"}, {"name": "StatefulPartitionedCall/neural_network_2/mobile_net_v3_small_2/bottle_neck_32/se_block_32/ExpandDims_1/dim", "shape": [], "dtype": "int32"}, {"name": "ConstantFolding/StatefulPartitionedCall/neural_network_2/mobile_net_v3_small_2/bottle_neck_31/truediv_1_recip", "shape": [], "dtype": "float32"}, {"name": "ConstantFolding/StatefulPartitionedCall/neural_network_2/mobile_net_v3_small_2/bottle_neck_31/truediv_recip", "shape": [], "dtype": "float32"}, {"name": "StatefulPartitionedCall/neural_network_2/mobile_net_v3_small_2/bottle_neck_31/add/y", "shape": [], "dtype": "float32"}, {"name": "StatefulPartitionedCall/neural_network_2/mobile_net_v3_small_2/bottle_neck_31/add_1/y", "shape": [], "dtype": "float32"}, {"name": "StatefulPartitionedCall/neural_network_2/mobile_net_v3_small_2/bottle_neck_31/se_block_31/global_average_pooling2d_33/Mean/reduction_indices", "shape": [2], "dtype": "int32"}, {"name": "StatefulPartitionedCall/neural_network_2/mobile_net_v3_small_2/bottle_neck_31/se_block_31/dense_98/MatMul/ReadVariableOp", "shape": [576, 36], "dtype": "float32"}, {"name": "StatefulPartitionedCall/neural_network_2/mobile_net_v3_small_2/bottle_neck_31/se_block_31/dense_98/BiasAdd/ReadVariableOp", "shape": [36], "dtype": "float32"}, {"name": "StatefulPartitionedCall/neural_network_2/mobile_net_v3_small_2/bottle_neck_31/se_block_31/dense_99/MatMul/ReadVariableOp", "shape": [36, 576], "dtype": "float32"}, {"name": "StatefulPartitionedCall/neural_network_2/mobile_net_v3_small_2/bottle_neck_31/se_block_31/dense_99/BiasAdd/ReadVariableOp", "shape": [576], "dtype": "float32"}, {"name": "StatefulPartitionedCall/neural_network_2/mobile_net_v3_small_2/bottle_neck_31/se_block_31/add/y", "shape": [], "dtype": "float32"}, {"name": "ConstantFolding/StatefulPartitionedCall/neural_network_2/mobile_net_v3_small_2/bottle_neck_31/se_block_31/truediv_recip", "shape": [], "dtype": "float32"}, {"name": "StatefulPartitionedCall/neural_network_2/mobile_net_v3_small_2/bottle_neck_31/se_block_31/ExpandDims/dim", "shape": [], "dtype": "int32"}, {"name": "StatefulPartitionedCall/neural_network_2/mobile_net_v3_small_2/bottle_neck_31/se_block_31/ExpandDims_1/dim", "shape": [], "dtype": "int32"}, {"name": "ConstantFolding/StatefulPartitionedCall/neural_network_2/mobile_net_v3_small_2/bottle_neck_30/truediv_1_recip", "shape": [], "dtype": "float32"}, {"name": "ConstantFolding/StatefulPartitionedCall/neural_network_2/mobile_net_v3_small_2/bottle_neck_30/truediv_recip", "shape": [], "dtype": "float32"}, {"name": "ConstantFolding/StatefulPartitionedCall/neural_network_2/mobile_net_v3_small_2/bottle_neck_29/truediv_1_recip", "shape": [], "dtype": "float32"}, {"name": "ConstantFolding/StatefulPartitionedCall/neural_network_2/mobile_net_v3_small_2/bottle_neck_29/truediv_recip", "shape": [], "dtype": "float32"}, {"name": "StatefulPartitionedCall/neural_network_2/mobile_net_v3_small_2/bottle_neck_29/add/y", "shape": [], "dtype": "float32"}, {"name": "StatefulPartitionedCall/neural_network_2/mobile_net_v3_small_2/bottle_neck_29/add_1/y", "shape": [], "dtype": "float32"}, {"name": "StatefulPartitionedCall/neural_network_2/mobile_net_v3_small_2/bottle_neck_29/se_block_29/global_average_pooling2d_31/Mean/reduction_indices", "shape": [2], "dtype": "int32"}, {"name": "StatefulPartitionedCall/neural_network_2/mobile_net_v3_small_2/bottle_neck_29/se_block_29/dense_94/MatMul/ReadVariableOp", "shape": [144, 9], "dtype": "float32"}, {"name": "StatefulPartitionedCall/neural_network_2/mobile_net_v3_small_2/bottle_neck_29/se_block_29/dense_94/BiasAdd/ReadVariableOp", "shape": [9], "dtype": "float32"}, {"name": "StatefulPartitionedCall/neural_network_2/mobile_net_v3_small_2/bottle_neck_29/se_block_29/dense_95/MatMul/ReadVariableOp", "shape": [9, 144], "dtype": "float32"}, {"name": "StatefulPartitionedCall/neural_network_2/mobile_net_v3_small_2/bottle_neck_29/se_block_29/dense_95/BiasAdd/ReadVariableOp", "shape": [144], "dtype": "float32"}, {"name": "StatefulPartitionedCall/neural_network_2/mobile_net_v3_small_2/bottle_neck_29/se_block_29/add/y", "shape": [], "dtype": "float32"}, {"name": "ConstantFolding/StatefulPartitionedCall/neural_network_2/mobile_net_v3_small_2/bottle_neck_29/se_block_29/truediv_recip", "shape": [], "dtype": "float32"}, {"name": "StatefulPartitionedCall/neural_network_2/mobile_net_v3_small_2/bottle_neck_29/se_block_29/ExpandDims/dim", "shape": [], "dtype": "int32"}, {"name": "StatefulPartitionedCall/neural_network_2/mobile_net_v3_small_2/bottle_neck_29/se_block_29/ExpandDims_1/dim", "shape": [], "dtype": "int32"}, {"name": "ConstantFolding/StatefulPartitionedCall/neural_network_2/mobile_net_v3_small_2/bottle_neck_28/truediv_1_recip", "shape": [], "dtype": "float32"}, {"name": "ConstantFolding/StatefulPartitionedCall/neural_network_2/mobile_net_v3_small_2/bottle_neck_28/truediv_recip", "shape": [], "dtype": "float32"}, {"name": "ConstantFolding/StatefulPartitionedCall/neural_network_2/mobile_net_v3_small_2/bottle_neck_27/truediv_1_recip", "shape": [], "dtype": "float32"}, {"name": "ConstantFolding/StatefulPartitionedCall/neural_network_2/mobile_net_v3_small_2/bottle_neck_27/truediv_recip", "shape": [], "dtype": "float32"}, {"name": "StatefulPartitionedCall/neural_network_2/mobile_net_v3_small_2/bottle_neck_27/add/y", "shape": [], "dtype": "float32"}, {"name": "StatefulPartitionedCall/neural_network_2/mobile_net_v3_small_2/bottle_neck_27/add_1/y", "shape": [], "dtype": "float32"}, {"name": "StatefulPartitionedCall/neural_network_2/mobile_net_v3_small_2/bottle_neck_27/se_block_27/global_average_pooling2d_29/Mean/reduction_indices", "shape": [2], "dtype": "int32"}, {"name": "StatefulPartitionedCall/neural_network_2/mobile_net_v3_small_2/bottle_neck_27/se_block_27/dense_90/MatMul/ReadVariableOp", "shape": [240, 15], "dtype": "float32"}, {"name": "StatefulPartitionedCall/neural_network_2/mobile_net_v3_small_2/bottle_neck_27/se_block_27/dense_90/BiasAdd/ReadVariableOp", "shape": [15], "dtype": "float32"}, {"name": "StatefulPartitionedCall/neural_network_2/mobile_net_v3_small_2/bottle_neck_27/se_block_27/dense_91/MatMul/ReadVariableOp", "shape": [15, 240], "dtype": "float32"}, {"name": "StatefulPartitionedCall/neural_network_2/mobile_net_v3_small_2/bottle_neck_27/se_block_27/dense_91/BiasAdd/ReadVariableOp", "shape": [240], "dtype": "float32"}, {"name": "StatefulPartitionedCall/neural_network_2/mobile_net_v3_small_2/bottle_neck_27/se_block_27/add/y", "shape": [], "dtype": "float32"}, {"name": "ConstantFolding/StatefulPartitionedCall/neural_network_2/mobile_net_v3_small_2/bottle_neck_27/se_block_27/truediv_recip", "shape": [], "dtype": "float32"}, {"name": "StatefulPartitionedCall/neural_network_2/mobile_net_v3_small_2/bottle_neck_27/se_block_27/ExpandDims/dim", "shape": [], "dtype": "int32"}, {"name": "StatefulPartitionedCall/neural_network_2/mobile_net_v3_small_2/bottle_neck_27/se_block_27/ExpandDims_1/dim", "shape": [], "dtype": "int32"}, {"name": "ConstantFolding/StatefulPartitionedCall/neural_network_2/mobile_net_v3_small_2/bottle_neck_26/truediv_1_recip", "shape": [], "dtype": "float32"}, {"name": "ConstantFolding/StatefulPartitionedCall/neural_network_2/mobile_net_v3_small_2/bottle_neck_26/truediv_recip", "shape": [], "dtype": "float32"}, {"name": "StatefulPartitionedCall/neural_network_2/mobile_net_v3_small_2/bottle_neck_26/add/y", "shape": [], "dtype": "float32"}, {"name": "StatefulPartitionedCall/neural_network_2/mobile_net_v3_small_2/bottle_neck_26/add_1/y", "shape": [], "dtype": "float32"}, {"name": "StatefulPartitionedCall/neural_network_2/mobile_net_v3_small_2/bottle_neck_26/se_block_26/global_average_pooling2d_28/Mean/reduction_indices", "shape": [2], "dtype": "int32"}, {"name": "StatefulPartitionedCall/neural_network_2/mobile_net_v3_small_2/bottle_neck_26/se_block_26/dense_88/MatMul/ReadVariableOp", "shape": [240, 15], "dtype": "float32"}, {"name": "StatefulPartitionedCall/neural_network_2/mobile_net_v3_small_2/bottle_neck_26/se_block_26/dense_88/BiasAdd/ReadVariableOp", "shape": [15], "dtype": "float32"}, {"name": "StatefulPartitionedCall/neural_network_2/mobile_net_v3_small_2/bottle_neck_26/se_block_26/dense_89/MatMul/ReadVariableOp", "shape": [15, 240], "dtype": "float32"}, {"name": "StatefulPartitionedCall/neural_network_2/mobile_net_v3_small_2/bottle_neck_26/se_block_26/dense_89/BiasAdd/ReadVariableOp", "shape": [240], "dtype": "float32"}, {"name": "StatefulPartitionedCall/neural_network_2/mobile_net_v3_small_2/bottle_neck_26/se_block_26/add/y", "shape": [], "dtype": "float32"}, {"name": "ConstantFolding/StatefulPartitionedCall/neural_network_2/mobile_net_v3_small_2/bottle_neck_26/se_block_26/truediv_recip", "shape": [], "dtype": "float32"}, {"name": "StatefulPartitionedCall/neural_network_2/mobile_net_v3_small_2/bottle_neck_26/se_block_26/ExpandDims/dim", "shape": [], "dtype": "int32"}, {"name": "StatefulPartitionedCall/neural_network_2/mobile_net_v3_small_2/bottle_neck_26/se_block_26/ExpandDims_1/dim", "shape": [], "dtype": "int32"}, {"name": "ConstantFolding/StatefulPartitionedCall/neural_network_2/mobile_net_v3_small_2/bottle_neck_25/truediv_1_recip", "shape": [], "dtype": "float32"}, {"name": "ConstantFolding/StatefulPartitionedCall/neural_network_2/mobile_net_v3_small_2/bottle_neck_25/truediv_recip", "shape": [], "dtype": "float32"}, {"name": "ConstantFolding/StatefulPartitionedCall/neural_network_2/mobile_net_v3_small_2/truediv_recip", "shape": [], "dtype": "float32"}, {"name": "StatefulPartitionedCall/neural_network_2/mobile_net_v3_small_2/add/y", "shape": [], "dtype": "float32"}, {"name": "StatefulPartitionedCall/neural_network_2/mobile_net_v3_small_2/bottle_neck_22/se_block_22/global_average_pooling2d_24/Mean/reduction_indices", "shape": [2], "dtype": "int32"}, {"name": "StatefulPartitionedCall/neural_network_2/mobile_net_v3_small_2/bottle_neck_22/se_block_22/dense_80/MatMul/ReadVariableOp", "shape": [16, 1], "dtype": "float32"}, {"name": "StatefulPartitionedCall/neural_network_2/mobile_net_v3_small_2/bottle_neck_22/se_block_22/dense_80/BiasAdd/ReadVariableOp", "shape": [1], "dtype": "float32"}, {"name": "StatefulPartitionedCall/neural_network_2/mobile_net_v3_small_2/bottle_neck_22/se_block_22/dense_81/MatMul/ReadVariableOp", "shape": [1, 16], "dtype": "float32"}, {"name": "StatefulPartitionedCall/neural_network_2/mobile_net_v3_small_2/bottle_neck_22/se_block_22/dense_81/BiasAdd/ReadVariableOp", "shape": [16], "dtype": "float32"}, {"name": "StatefulPartitionedCall/neural_network_2/mobile_net_v3_small_2/bottle_neck_22/se_block_22/add/y", "shape": [], "dtype": "float32"}, {"name": "ConstantFolding/StatefulPartitionedCall/neural_network_2/mobile_net_v3_small_2/bottle_neck_22/se_block_22/truediv_recip", "shape": [], "dtype": "float32"}, {"name": "StatefulPartitionedCall/neural_network_2/mobile_net_v3_small_2/bottle_neck_22/se_block_22/ExpandDims/dim", "shape": [], "dtype": "int32"}, {"name": "StatefulPartitionedCall/neural_network_2/mobile_net_v3_small_2/bottle_neck_22/se_block_22/ExpandDims_1/dim", "shape": [], "dtype": "int32"}, {"name": "StatefulPartitionedCall/neural_network_2/mobile_net_v3_small_2/bottle_neck_25/add/y", "shape": [], "dtype": "float32"}, {"name": "StatefulPartitionedCall/neural_network_2/mobile_net_v3_small_2/bottle_neck_25/add_1/y", "shape": [], "dtype": "float32"}, {"name": "StatefulPartitionedCall/neural_network_2/mobile_net_v3_small_2/bottle_neck_25/se_block_25/global_average_pooling2d_27/Mean/reduction_indices", "shape": [2], "dtype": "int32"}, {"name": "StatefulPartitionedCall/neural_network_2/mobile_net_v3_small_2/bottle_neck_25/se_block_25/dense_86/MatMul/ReadVariableOp", "shape": [96, 6], "dtype": "float32"}, {"name": "StatefulPartitionedCall/neural_network_2/mobile_net_v3_small_2/bottle_neck_25/se_block_25/dense_86/BiasAdd/ReadVariableOp", "shape": [6], "dtype": "float32"}, {"name": "StatefulPartitionedCall/neural_network_2/mobile_net_v3_small_2/bottle_neck_25/se_block_25/dense_87/MatMul/ReadVariableOp", "shape": [6, 96], "dtype": "float32"}, {"name": "StatefulPartitionedCall/neural_network_2/mobile_net_v3_small_2/bottle_neck_25/se_block_25/dense_87/BiasAdd/ReadVariableOp", "shape": [96], "dtype": "float32"}, {"name": "StatefulPartitionedCall/neural_network_2/mobile_net_v3_small_2/bottle_neck_25/se_block_25/add/y", "shape": [], "dtype": "float32"}, {"name": "ConstantFolding/StatefulPartitionedCall/neural_network_2/mobile_net_v3_small_2/bottle_neck_25/se_block_25/truediv_recip", "shape": [], "dtype": "float32"}, {"name": "StatefulPartitionedCall/neural_network_2/mobile_net_v3_small_2/bottle_neck_25/se_block_25/ExpandDims/dim", "shape": [], "dtype": "int32"}, {"name": "StatefulPartitionedCall/neural_network_2/mobile_net_v3_small_2/bottle_neck_25/se_block_25/ExpandDims_1/dim", "shape": [], "dtype": "int32"}, {"name": "StatefulPartitionedCall/neural_network_2/mobile_net_v3_small_2/bottle_neck_28/add/y", "shape": [], "dtype": "float32"}, {"name": "StatefulPartitionedCall/neural_network_2/mobile_net_v3_small_2/bottle_neck_28/add_1/y", "shape": [], "dtype": "float32"}, {"name": "StatefulPartitionedCall/neural_network_2/mobile_net_v3_small_2/bottle_neck_28/se_block_28/global_average_pooling2d_30/Mean/reduction_indices", "shape": [2], "dtype": "int32"}, {"name": "StatefulPartitionedCall/neural_network_2/mobile_net_v3_small_2/bottle_neck_28/se_block_28/dense_92/MatMul/ReadVariableOp", "shape": [120, 7], "dtype": "float32"}, {"name": "StatefulPartitionedCall/neural_network_2/mobile_net_v3_small_2/bottle_neck_28/se_block_28/dense_92/BiasAdd/ReadVariableOp", "shape": [7], "dtype": "float32"}, {"name": "StatefulPartitionedCall/neural_network_2/mobile_net_v3_small_2/bottle_neck_28/se_block_28/dense_93/MatMul/ReadVariableOp", "shape": [7, 120], "dtype": "float32"}, {"name": "StatefulPartitionedCall/neural_network_2/mobile_net_v3_small_2/bottle_neck_28/se_block_28/dense_93/BiasAdd/ReadVariableOp", "shape": [120], "dtype": "float32"}, {"name": "StatefulPartitionedCall/neural_network_2/mobile_net_v3_small_2/bottle_neck_28/se_block_28/add/y", "shape": [], "dtype": "float32"}, {"name": "ConstantFolding/StatefulPartitionedCall/neural_network_2/mobile_net_v3_small_2/bottle_neck_28/se_block_28/truediv_recip", "shape": [], "dtype": "float32"}, {"name": "StatefulPartitionedCall/neural_network_2/mobile_net_v3_small_2/bottle_neck_28/se_block_28/ExpandDims/dim", "shape": [], "dtype": "int32"}, {"name": "StatefulPartitionedCall/neural_network_2/mobile_net_v3_small_2/bottle_neck_28/se_block_28/ExpandDims_1/dim", "shape": [], "dtype": "int32"}, {"name": "StatefulPartitionedCall/neural_network_2/mobile_net_v3_small_2/bottle_neck_30/add/y", "shape": [], "dtype": "float32"}, {"name": "StatefulPartitionedCall/neural_network_2/mobile_net_v3_small_2/bottle_neck_30/add_1/y", "shape": [], "dtype": "float32"}, {"name": "StatefulPartitionedCall/neural_network_2/mobile_net_v3_small_2/bottle_neck_30/se_block_30/global_average_pooling2d_32/Mean/reduction_indices", "shape": [2], "dtype": "int32"}, {"name": "StatefulPartitionedCall/neural_network_2/mobile_net_v3_small_2/bottle_neck_30/se_block_30/dense_96/MatMul/ReadVariableOp", "shape": [288, 18], "dtype": "float32"}, {"name": "StatefulPartitionedCall/neural_network_2/mobile_net_v3_small_2/bottle_neck_30/se_block_30/dense_96/BiasAdd/ReadVariableOp", "shape": [18], "dtype": "float32"}, {"name": "StatefulPartitionedCall/neural_network_2/mobile_net_v3_small_2/bottle_neck_30/se_block_30/dense_97/MatMul/ReadVariableOp", "shape": [18, 288], "dtype": "float32"}, {"name": "StatefulPartitionedCall/neural_network_2/mobile_net_v3_small_2/bottle_neck_30/se_block_30/dense_97/BiasAdd/ReadVariableOp", "shape": [288], "dtype": "float32"}, {"name": "StatefulPartitionedCall/neural_network_2/mobile_net_v3_small_2/bottle_neck_30/se_block_30/add/y", "shape": [], "dtype": "float32"}, {"name": "ConstantFolding/StatefulPartitionedCall/neural_network_2/mobile_net_v3_small_2/bottle_neck_30/se_block_30/truediv_recip", "shape": [], "dtype": "float32"}, {"name": "StatefulPartitionedCall/neural_network_2/mobile_net_v3_small_2/bottle_neck_30/se_block_30/ExpandDims/dim", "shape": [], "dtype": "int32"}, {"name": "StatefulPartitionedCall/neural_network_2/mobile_net_v3_small_2/bottle_neck_30/se_block_30/ExpandDims_1/dim", "shape": [], "dtype": "int32"}, {"name": "StatefulPartitionedCall/neural_network_2/mobile_net_v3_small_2/add_1/y", "shape": [], "dtype": "float32"}, {"name": "StatefulPartitionedCall/neural_network_2/mobile_net_v3_small_2/conv2d_76/Conv2D/ReadVariableOp", "shape": [1, 1, 576, 1280], "dtype": "float32"}, {"name": "StatefulPartitionedCall/neural_network_2/mobile_net_v3_small_2/conv2d_76/BiasAdd/ReadVariableOp", "shape": [1280], "dtype": "float32"}, {"name": "StatefulPartitionedCall/neural_network_2/mobile_net_v3_small_2/add_2/y", "shape": [], "dtype": "float32"}, {"name": "StatefulPartitionedCall/neural_network_2/mobile_net_v3_small_2/conv2d_77/Conv2D/ReadVariableOp", "shape": [1, 1, 1280, 1024], "dtype": "float32"}, {"name": "StatefulPartitionedCall/neural_network_2/mobile_net_v3_small_2/conv2d_77/BiasAdd/ReadVariableOp", "shape": [1024], "dtype": "float32"}, {"name": "StatefulPartitionedCall/neural_network_2/mobile_net_v3_small_2/global_average_pooling2d_35/Mean/reduction_indices", "shape": [2], "dtype": "int32"}, {"name": "StatefulPartitionedCall/neural_network_2/res_mlp_2/dense_102/MatMul/ReadVariableOp", "shape": [1024, 32], "dtype": "float32"}, {"name": "StatefulPartitionedCall/neural_network_2/res_mlp_2/dense_102/BiasAdd/ReadVariableOp", "shape": [32], "dtype": "float32"}, {"name": "StatefulPartitionedCall/neural_network_2/res_mlp_2/batch_normalization_107/batchnorm/mul", "shape": [32], "dtype": "float32"}, {"name": "StatefulPartitionedCall/neural_network_2/res_mlp_2/batch_normalization_107/batchnorm/sub", "shape": [32], "dtype": "float32"}, {"name": "StatefulPartitionedCall/neural_network_2/res_mlp_2/sequential_2/res_mlp_block_14/dense_109/MatMul/ReadVariableOp", "shape": [32, 64], "dtype": "float32"}, {"name": "StatefulPartitionedCall/neural_network_2/res_mlp_2/sequential_2/res_mlp_block_14/dense_109/BiasAdd/ReadVariableOp", "shape": [64], "dtype": "float32"}, {"name": "StatefulPartitionedCall/neural_network_2/res_mlp_2/sequential_2/res_mlp_block_14/pow/y", "shape": [], "dtype": "float32"}, {"name": "StatefulPartitionedCall/neural_network_2/res_mlp_2/sequential_2/res_mlp_block_14/dense_110/MatMul/ReadVariableOp", "shape": [64, 64], "dtype": "float32"}, {"name": "StatefulPartitionedCall/neural_network_2/res_mlp_2/sequential_2/res_mlp_block_14/dense_110/BiasAdd/ReadVariableOp", "shape": [64], "dtype": "float32"}, {"name": "StatefulPartitionedCall/neural_network_2/res_mlp_2/sequential_2/res_mlp_block_14/pow_1/y", "shape": [], "dtype": "float32"}, {"name": "StatefulPartitionedCall/neural_network_2/res_mlp_2/sequential_2/res_mlp_block_16/dense_115/MatMul/ReadVariableOp", "shape": [64, 128], "dtype": "float32"}, {"name": "StatefulPartitionedCall/neural_network_2/res_mlp_2/sequential_2/res_mlp_block_16/dense_115/BiasAdd/ReadVariableOp", "shape": [128], "dtype": "float32"}, {"name": "StatefulPartitionedCall/neural_network_2/res_mlp_2/sequential_2/res_mlp_block_16/pow/y", "shape": [], "dtype": "float32"}, {"name": "StatefulPartitionedCall/neural_network_2/res_mlp_2/sequential_2/res_mlp_block_16/dense_116/MatMul/ReadVariableOp", "shape": [128, 128], "dtype": "float32"}, {"name": "StatefulPartitionedCall/neural_network_2/res_mlp_2/sequential_2/res_mlp_block_16/dense_116/BiasAdd/ReadVariableOp", "shape": [128], "dtype": "float32"}, {"name": "StatefulPartitionedCall/neural_network_2/res_mlp_2/sequential_2/res_mlp_block_16/pow_1/y", "shape": [], "dtype": "float32"}, {"name": "StatefulPartitionedCall/neural_network_2/res_mlp_2/dense_119/MatMul/ReadVariableOp", "shape": [128, 6], "dtype": "float32"}, {"name": "StatefulPartitionedCall/neural_network_2/res_mlp_2/dense_119/BiasAdd/ReadVariableOp", "shape": [6], "dtype": "float32"}, {"name": "StatefulPartitionedCall/neural_network_2/mobile_net_v3_small_2/conv2d_52/Conv2D_weights", "shape": [3, 3, 3, 16], "dtype": "float32"}, {"name": "StatefulPartitionedCall/neural_network_2/mobile_net_v3_small_2/conv2d_52/Conv2D_bn_offset", "shape": [16], "dtype": "float32"}, {"name": "StatefulPartitionedCall/neural_network_2/mobile_net_v3_small_2/bottle_neck_22/conv2d_53/Conv2D_weights", "shape": [1, 1, 16, 16], "dtype": "float32"}, {"name": "StatefulPartitionedCall/neural_network_2/mobile_net_v3_small_2/bottle_neck_22/conv2d_53/Conv2D_bn_offset", "shape": [16], "dtype": "float32"}, {"name": "StatefulPartitionedCall/neural_network_2/mobile_net_v3_small_2/bottle_neck_22/depthwise_conv2d_22/depthwise_weights", "shape": [3, 3, 16, 1], "dtype": "float32"}, {"name": "StatefulPartitionedCall/neural_network_2/mobile_net_v3_small_2/bottle_neck_22/depthwise_conv2d_22/depthwise_bn_offset", "shape": [16], "dtype": "float32"}, {"name": "StatefulPartitionedCall/neural_network_2/mobile_net_v3_small_2/bottle_neck_22/conv2d_54/Conv2D_weights", "shape": [1, 1, 16, 16], "dtype": "float32"}, {"name": "StatefulPartitionedCall/neural_network_2/mobile_net_v3_small_2/bottle_neck_22/conv2d_54/Conv2D_bn_offset", "shape": [16], "dtype": "float32"}, {"name": "StatefulPartitionedCall/neural_network_2/mobile_net_v3_small_2/bottle_neck_23/conv2d_55/Conv2D_weights", "shape": [1, 1, 16, 72], "dtype": "float32"}, {"name": "StatefulPartitionedCall/neural_network_2/mobile_net_v3_small_2/bottle_neck_23/conv2d_55/Conv2D_bn_offset", "shape": [72], "dtype": "float32"}, {"name": "StatefulPartitionedCall/neural_network_2/mobile_net_v3_small_2/bottle_neck_23/depthwise_conv2d_23/depthwise_weights", "shape": [3, 3, 72, 1], "dtype": "float32"}, {"name": "StatefulPartitionedCall/neural_network_2/mobile_net_v3_small_2/bottle_neck_23/depthwise_conv2d_23/depthwise_bn_offset", "shape": [72], "dtype": "float32"}, {"name": "StatefulPartitionedCall/neural_network_2/mobile_net_v3_small_2/bottle_neck_23/conv2d_56/Conv2D_weights", "shape": [1, 1, 72, 24], "dtype": "float32"}, {"name": "StatefulPartitionedCall/neural_network_2/mobile_net_v3_small_2/bottle_neck_23/conv2d_56/Conv2D_bn_offset", "shape": [24], "dtype": "float32"}, {"name": "StatefulPartitionedCall/neural_network_2/mobile_net_v3_small_2/bottle_neck_24/conv2d_57/Conv2D_weights", "shape": [1, 1, 24, 88], "dtype": "float32"}, {"name": "StatefulPartitionedCall/neural_network_2/mobile_net_v3_small_2/bottle_neck_24/conv2d_57/Conv2D_bn_offset", "shape": [88], "dtype": "float32"}, {"name": "StatefulPartitionedCall/neural_network_2/mobile_net_v3_small_2/bottle_neck_24/depthwise_conv2d_24/depthwise_weights", "shape": [3, 3, 88, 1], "dtype": "float32"}, {"name": "StatefulPartitionedCall/neural_network_2/mobile_net_v3_small_2/bottle_neck_24/depthwise_conv2d_24/depthwise_bn_offset", "shape": [88], "dtype": "float32"}, {"name": "StatefulPartitionedCall/neural_network_2/mobile_net_v3_small_2/bottle_neck_24/conv2d_58/Conv2D_weights", "shape": [1, 1, 88, 24], "dtype": "float32"}, {"name": "StatefulPartitionedCall/neural_network_2/mobile_net_v3_small_2/bottle_neck_24/conv2d_58/Conv2D_bn_offset", "shape": [24], "dtype": "float32"}, {"name": "StatefulPartitionedCall/neural_network_2/mobile_net_v3_small_2/bottle_neck_25/conv2d_59/Conv2D_weights", "shape": [1, 1, 24, 96], "dtype": "float32"}, {"name": "StatefulPartitionedCall/neural_network_2/mobile_net_v3_small_2/bottle_neck_25/conv2d_59/Conv2D_bn_offset", "shape": [96], "dtype": "float32"}, {"name": "StatefulPartitionedCall/neural_network_2/mobile_net_v3_small_2/bottle_neck_25/depthwise_conv2d_25/depthwise_weights", "shape": [5, 5, 96, 1], "dtype": "float32"}, {"name": "StatefulPartitionedCall/neural_network_2/mobile_net_v3_small_2/bottle_neck_25/depthwise_conv2d_25/depthwise_bn_offset", "shape": [96], "dtype": "float32"}, {"name": "StatefulPartitionedCall/neural_network_2/mobile_net_v3_small_2/bottle_neck_25/conv2d_60/Conv2D_weights", "shape": [1, 1, 96, 40], "dtype": "float32"}, {"name": "StatefulPartitionedCall/neural_network_2/mobile_net_v3_small_2/bottle_neck_25/conv2d_60/Conv2D_bn_offset", "shape": [40], "dtype": "float32"}, {"name": "StatefulPartitionedCall/neural_network_2/mobile_net_v3_small_2/bottle_neck_26/conv2d_61/Conv2D_weights", "shape": [1, 1, 40, 240], "dtype": "float32"}, {"name": "StatefulPartitionedCall/neural_network_2/mobile_net_v3_small_2/bottle_neck_26/conv2d_61/Conv2D_bn_offset", "shape": [240], "dtype": "float32"}, {"name": "StatefulPartitionedCall/neural_network_2/mobile_net_v3_small_2/bottle_neck_26/depthwise_conv2d_26/depthwise_weights", "shape": [5, 5, 240, 1], "dtype": "float32"}, {"name": "StatefulPartitionedCall/neural_network_2/mobile_net_v3_small_2/bottle_neck_26/depthwise_conv2d_26/depthwise_bn_offset", "shape": [240], "dtype": "float32"}, {"name": "StatefulPartitionedCall/neural_network_2/mobile_net_v3_small_2/bottle_neck_26/conv2d_62/Conv2D_weights", "shape": [1, 1, 240, 40], "dtype": "float32"}, {"name": "StatefulPartitionedCall/neural_network_2/mobile_net_v3_small_2/bottle_neck_26/conv2d_62/Conv2D_bn_offset", "shape": [40], "dtype": "float32"}, {"name": "StatefulPartitionedCall/neural_network_2/mobile_net_v3_small_2/bottle_neck_27/conv2d_63/Conv2D_weights", "shape": [1, 1, 40, 240], "dtype": "float32"}, {"name": "StatefulPartitionedCall/neural_network_2/mobile_net_v3_small_2/bottle_neck_27/conv2d_63/Conv2D_bn_offset", "shape": [240], "dtype": "float32"}, {"name": "StatefulPartitionedCall/neural_network_2/mobile_net_v3_small_2/bottle_neck_27/depthwise_conv2d_27/depthwise_weights", "shape": [5, 5, 240, 1], "dtype": "float32"}, {"name": "StatefulPartitionedCall/neural_network_2/mobile_net_v3_small_2/bottle_neck_27/depthwise_conv2d_27/depthwise_bn_offset", "shape": [240], "dtype": "float32"}, {"name": "StatefulPartitionedCall/neural_network_2/mobile_net_v3_small_2/bottle_neck_27/conv2d_64/Conv2D_weights", "shape": [1, 1, 240, 40], "dtype": "float32"}, {"name": "StatefulPartitionedCall/neural_network_2/mobile_net_v3_small_2/bottle_neck_27/conv2d_64/Conv2D_bn_offset", "shape": [40], "dtype": "float32"}, {"name": "StatefulPartitionedCall/neural_network_2/mobile_net_v3_small_2/bottle_neck_28/conv2d_65/Conv2D_weights", "shape": [1, 1, 40, 120], "dtype": "float32"}, {"name": "StatefulPartitionedCall/neural_network_2/mobile_net_v3_small_2/bottle_neck_28/conv2d_65/Conv2D_bn_offset", "shape": [120], "dtype": "float32"}, {"name": "StatefulPartitionedCall/neural_network_2/mobile_net_v3_small_2/bottle_neck_28/depthwise_conv2d_28/depthwise_weights", "shape": [5, 5, 120, 1], "dtype": "float32"}, {"name": "StatefulPartitionedCall/neural_network_2/mobile_net_v3_small_2/bottle_neck_28/depthwise_conv2d_28/depthwise_bn_offset", "shape": [120], "dtype": "float32"}, {"name": "StatefulPartitionedCall/neural_network_2/mobile_net_v3_small_2/bottle_neck_28/conv2d_66/Conv2D_weights", "shape": [1, 1, 120, 48], "dtype": "float32"}, {"name": "StatefulPartitionedCall/neural_network_2/mobile_net_v3_small_2/bottle_neck_28/conv2d_66/Conv2D_bn_offset", "shape": [48], "dtype": "float32"}, {"name": "StatefulPartitionedCall/neural_network_2/mobile_net_v3_small_2/bottle_neck_29/conv2d_67/Conv2D_weights", "shape": [1, 1, 48, 144], "dtype": "float32"}, {"name": "StatefulPartitionedCall/neural_network_2/mobile_net_v3_small_2/bottle_neck_29/conv2d_67/Conv2D_bn_offset", "shape": [144], "dtype": "float32"}, {"name": "StatefulPartitionedCall/neural_network_2/mobile_net_v3_small_2/bottle_neck_29/depthwise_conv2d_29/depthwise_weights", "shape": [5, 5, 144, 1], "dtype": "float32"}, {"name": "StatefulPartitionedCall/neural_network_2/mobile_net_v3_small_2/bottle_neck_29/depthwise_conv2d_29/depthwise_bn_offset", "shape": [144], "dtype": "float32"}, {"name": "StatefulPartitionedCall/neural_network_2/mobile_net_v3_small_2/bottle_neck_29/conv2d_68/Conv2D_weights", "shape": [1, 1, 144, 48], "dtype": "float32"}, {"name": "StatefulPartitionedCall/neural_network_2/mobile_net_v3_small_2/bottle_neck_29/conv2d_68/Conv2D_bn_offset", "shape": [48], "dtype": "float32"}, {"name": "StatefulPartitionedCall/neural_network_2/mobile_net_v3_small_2/bottle_neck_30/conv2d_69/Conv2D_weights", "shape": [1, 1, 48, 288], "dtype": "float32"}, {"name": "StatefulPartitionedCall/neural_network_2/mobile_net_v3_small_2/bottle_neck_30/conv2d_69/Conv2D_bn_offset", "shape": [288], "dtype": "float32"}, {"name": "StatefulPartitionedCall/neural_network_2/mobile_net_v3_small_2/bottle_neck_30/depthwise_conv2d_30/depthwise_weights", "shape": [5, 5, 288, 1], "dtype": "float32"}, {"name": "StatefulPartitionedCall/neural_network_2/mobile_net_v3_small_2/bottle_neck_30/depthwise_conv2d_30/depthwise_bn_offset", "shape": [288], "dtype": "float32"}, {"name": "StatefulPartitionedCall/neural_network_2/mobile_net_v3_small_2/bottle_neck_30/conv2d_70/Conv2D_weights", "shape": [1, 1, 288, 96], "dtype": "float32"}, {"name": "StatefulPartitionedCall/neural_network_2/mobile_net_v3_small_2/bottle_neck_30/conv2d_70/Conv2D_bn_offset", "shape": [96], "dtype": "float32"}, {"name": "StatefulPartitionedCall/neural_network_2/mobile_net_v3_small_2/bottle_neck_31/conv2d_71/Conv2D_weights", "shape": [1, 1, 96, 576], "dtype": "float32"}, {"name": "StatefulPartitionedCall/neural_network_2/mobile_net_v3_small_2/bottle_neck_31/conv2d_71/Conv2D_bn_offset", "shape": [576], "dtype": "float32"}, {"name": "StatefulPartitionedCall/neural_network_2/mobile_net_v3_small_2/bottle_neck_31/depthwise_conv2d_31/depthwise_weights", "shape": [5, 5, 576, 1], "dtype": "float32"}, {"name": "StatefulPartitionedCall/neural_network_2/mobile_net_v3_small_2/bottle_neck_31/depthwise_conv2d_31/depthwise_bn_offset", "shape": [576], "dtype": "float32"}, {"name": "StatefulPartitionedCall/neural_network_2/mobile_net_v3_small_2/bottle_neck_31/conv2d_72/Conv2D_weights", "shape": [1, 1, 576, 96], "dtype": "float32"}, {"name": "StatefulPartitionedCall/neural_network_2/mobile_net_v3_small_2/bottle_neck_31/conv2d_72/Conv2D_bn_offset", "shape": [96], "dtype": "float32"}, {"name": "StatefulPartitionedCall/neural_network_2/mobile_net_v3_small_2/bottle_neck_32/conv2d_73/Conv2D_weights", "shape": [1, 1, 96, 576], "dtype": "float32"}, {"name": "StatefulPartitionedCall/neural_network_2/mobile_net_v3_small_2/bottle_neck_32/conv2d_73/Conv2D_bn_offset", "shape": [576], "dtype": "float32"}, {"name": "StatefulPartitionedCall/neural_network_2/mobile_net_v3_small_2/bottle_neck_32/depthwise_conv2d_32/depthwise_weights", "shape": [5, 5, 576, 1], "dtype": "float32"}, {"name": "StatefulPartitionedCall/neural_network_2/mobile_net_v3_small_2/bottle_neck_32/depthwise_conv2d_32/depthwise_bn_offset", "shape": [576], "dtype": "float32"}, {"name": "StatefulPartitionedCall/neural_network_2/mobile_net_v3_small_2/bottle_neck_32/conv2d_74/Conv2D_weights", "shape": [1, 1, 576, 96], "dtype": "float32"}, {"name": "StatefulPartitionedCall/neural_network_2/mobile_net_v3_small_2/bottle_neck_32/conv2d_74/Conv2D_bn_offset", "shape": [96], "dtype": "float32"}, {"name": "StatefulPartitionedCall/neural_network_2/mobile_net_v3_small_2/conv2d_75/Conv2D_weights", "shape": [1, 1, 96, 576], "dtype": "float32"}, {"name": "StatefulPartitionedCall/neural_network_2/mobile_net_v3_small_2/conv2d_75/Conv2D_bn_offset", "shape": [576], "dtype": "float32"}]}]}